<?xml version="1.0"?>
<net name="main_graph" version="11">
	<layers>
		<layer id="1" name="input_ids" type="Parameter" version="opset1">
			<data shape="1,?" element_type="i64" />
			<rt_info>
				<attribute name="old_api_map_element_type" version="0" value="i32" />
			</rt_info>
			<output>
				<port id="0" precision="I64" names="input_ids">
					<dim>1</dim>
					<dim>-1</dim>
				</port>
			</output>
		</layer>
		<layer id="0" name="attention_mask" type="Parameter" version="opset1">
			<data shape="1,?" element_type="i64" />
			<rt_info>
				<attribute name="old_api_map_element_type" version="0" value="i32" />
			</rt_info>
			<output>
				<port id="0" precision="I64" names="attention_mask">
					<dim>1</dim>
					<dim>-1</dim>
				</port>
			</output>
		</layer>
		<layer id="2" name="Constant_24187" type="Const" version="opset1">
			<data element_type="f32" shape="1, 1, 768" offset="0" size="3072" />
			<output>
				<port id="0" precision="FP32">
					<dim>1</dim>
					<dim>1</dim>
					<dim>768</dim>
				</port>
			</output>
		</layer>
		<layer id="3" name="Constant_771" type="Const" version="opset1">
			<data element_type="boolean" shape="1, 1, 2048, 2048" offset="3072" size="4194304" />
			<output>
				<port id="0" precision="BOOL" names="onnx::Slice_484">
					<dim>1</dim>
					<dim>1</dim>
					<dim>2048</dim>
					<dim>2048</dim>
				</port>
			</output>
		</layer>
		<layer id="4" name="Constant_24175" type="Const" version="opset1">
			<data element_type="f32" shape="1, 1, 768" offset="4197376" size="3072" />
			<output>
				<port id="0" precision="FP32">
					<dim>1</dim>
					<dim>1</dim>
					<dim>768</dim>
				</port>
			</output>
		</layer>
		<layer id="5" name="Constant_640" type="Const" version="opset1">
			<data element_type="boolean" shape="1, 1, 2048, 2048" offset="4200448" size="4194304" />
			<output>
				<port id="0" precision="BOOL" names="onnx::Slice_346">
					<dim>1</dim>
					<dim>1</dim>
					<dim>2048</dim>
					<dim>2048</dim>
				</port>
			</output>
		</layer>
		<layer id="6" name="Constant_24163" type="Const" version="opset1">
			<data element_type="f32" shape="1, 1, 768" offset="8394752" size="3072" />
			<output>
				<port id="0" precision="FP32">
					<dim>1</dim>
					<dim>1</dim>
					<dim>768</dim>
				</port>
			</output>
		</layer>
		<layer id="7" name="Constant_24151" type="Const" version="opset1">
			<data element_type="f32" shape="1, 1, 768" offset="8397824" size="3072" />
			<output>
				<port id="0" precision="FP32">
					<dim>1</dim>
					<dim>1</dim>
					<dim>768</dim>
				</port>
			</output>
		</layer>
		<layer id="8" name="Constant_24139" type="Const" version="opset1">
			<data element_type="f32" shape="1, 1, 768" offset="8400896" size="3072" />
			<output>
				<port id="0" precision="FP32">
					<dim>1</dim>
					<dim>1</dim>
					<dim>768</dim>
				</port>
			</output>
		</layer>
		<layer id="9" name="Constant_24127" type="Const" version="opset1">
			<data element_type="f32" shape="1, 1, 768" offset="8403968" size="3072" />
			<output>
				<port id="0" precision="FP32">
					<dim>1</dim>
					<dim>1</dim>
					<dim>768</dim>
				</port>
			</output>
		</layer>
		<layer id="10" name="Constant_24115" type="Const" version="opset1">
			<data element_type="f32" shape="1, 1, 768" offset="8407040" size="3072" />
			<output>
				<port id="0" precision="FP32">
					<dim>1</dim>
					<dim>1</dim>
					<dim>768</dim>
				</port>
			</output>
		</layer>
		<layer id="11" name="Constant_24103" type="Const" version="opset1">
			<data element_type="f32" shape="1, 1, 768" offset="8410112" size="3072" />
			<output>
				<port id="0" precision="FP32">
					<dim>1</dim>
					<dim>1</dim>
					<dim>768</dim>
				</port>
			</output>
		</layer>
		<layer id="12" name="Constant_24091" type="Const" version="opset1">
			<data element_type="f32" shape="1, 1, 768" offset="8413184" size="3072" />
			<output>
				<port id="0" precision="FP32">
					<dim>1</dim>
					<dim>1</dim>
					<dim>768</dim>
				</port>
			</output>
		</layer>
		<layer id="13" name="Constant_24079" type="Const" version="opset1">
			<data element_type="f32" shape="1, 1, 768" offset="8416256" size="3072" />
			<output>
				<port id="0" precision="FP32">
					<dim>1</dim>
					<dim>1</dim>
					<dim>768</dim>
				</port>
			</output>
		</layer>
		<layer id="14" name="Constant_24067" type="Const" version="opset1">
			<data element_type="f32" shape="1, 1, 768" offset="8419328" size="3072" />
			<output>
				<port id="0" precision="FP32">
					<dim>1</dim>
					<dim>1</dim>
					<dim>768</dim>
				</port>
			</output>
		</layer>
		<layer id="15" name="Constant_24055" type="Const" version="opset1">
			<data element_type="f32" shape="1, 1, 768" offset="8422400" size="3072" />
			<output>
				<port id="0" precision="FP32">
					<dim>1</dim>
					<dim>1</dim>
					<dim>768</dim>
				</port>
			</output>
		</layer>
		<layer id="16" name="model.transformer.wte.weight" type="Const" version="opset1">
			<data element_type="f32" shape="50257, 768" offset="8425472" size="154389504" />
			<output>
				<port id="0" precision="FP32" names="model.transformer.wte.weight">
					<dim>50257</dim>
					<dim>768</dim>
				</port>
			</output>
		</layer>
		<layer id="17" name="Constant_25543" type="Const" version="opset1">
			<data element_type="i64" shape="2" offset="162814976" size="16" />
			<output>
				<port id="0" precision="I64">
					<dim>2</dim>
				</port>
			</output>
		</layer>
		<layer id="18" name="/model/transformer/Reshape" type="Reshape" version="opset1">
			<data special_zero="true" />
			<input>
				<port id="0" precision="I64">
					<dim>1</dim>
					<dim>-1</dim>
				</port>
				<port id="1" precision="I64">
					<dim>2</dim>
				</port>
			</input>
			<output>
				<port id="2" precision="I64" names="/model/transformer/Reshape_output_0">
					<dim>1</dim>
					<dim>-1</dim>
				</port>
			</output>
		</layer>
		<layer id="19" name="Constant_186" type="Const" version="opset1">
			<data element_type="i64" shape="" offset="162814992" size="8" />
			<output>
				<port id="0" precision="I64" />
			</output>
		</layer>
		<layer id="20" name="/model/transformer/wte/Gather" type="Gather" version="opset8">
			<data batch_dims="0" />
			<input>
				<port id="0" precision="FP32">
					<dim>50257</dim>
					<dim>768</dim>
				</port>
				<port id="1" precision="I64">
					<dim>1</dim>
					<dim>-1</dim>
				</port>
				<port id="2" precision="I64" />
			</input>
			<output>
				<port id="3" precision="FP32" names="/model/transformer/wte/Gather_output_0">
					<dim>1</dim>
					<dim>-1</dim>
					<dim>768</dim>
				</port>
			</output>
		</layer>
		<layer id="21" name="model.transformer.wpe.weight" type="Const" version="opset1">
			<data element_type="f32" shape="2048, 768" offset="162815000" size="6291456" />
			<output>
				<port id="0" precision="FP32" names="model.transformer.wpe.weight">
					<dim>2048</dim>
					<dim>768</dim>
				</port>
			</output>
		</layer>
		<layer id="22" name="/model/transformer/Constant_2" type="Const" version="opset1">
			<data element_type="i64" shape="" offset="162814992" size="8" />
			<output>
				<port id="0" precision="I64" names="/model/transformer/Constant_2_output_0" />
			</output>
		</layer>
		<layer id="23" name="ShapeOf_25408" type="ShapeOf" version="opset3">
			<data output_type="i64" />
			<input>
				<port id="0" precision="I64">
					<dim>1</dim>
					<dim>-1</dim>
				</port>
			</input>
			<output>
				<port id="1" precision="I64">
					<dim>2</dim>
				</port>
			</output>
		</layer>
		<layer id="24" name="Constant_25409" type="Const" version="opset1">
			<data element_type="i64" shape="" offset="169106456" size="8" />
			<output>
				<port id="0" precision="I64" />
			</output>
		</layer>
		<layer id="25" name="Constant_25410" type="Const" version="opset1">
			<data element_type="i64" shape="" offset="162814992" size="8" />
			<output>
				<port id="0" precision="I64" />
			</output>
		</layer>
		<layer id="26" name="Gather_25411" type="Gather" version="opset8">
			<data batch_dims="0" />
			<input>
				<port id="0" precision="I64">
					<dim>2</dim>
				</port>
				<port id="1" precision="I64" />
				<port id="2" precision="I64" />
			</input>
			<output>
				<port id="3" precision="I64" names="/model/transformer/Cast_output_0,/model/transformer/Gather_output_0" />
			</output>
		</layer>
		<layer id="27" name="/model/transformer/Constant_3" type="Const" version="opset1">
			<data element_type="i64" shape="" offset="169106456" size="8" />
			<output>
				<port id="0" precision="I64" names="/model/transformer/Constant_3_output_0" />
			</output>
		</layer>
		<layer id="28" name="/model/transformer/Range" type="Range" version="opset4">
			<data output_type="i64" />
			<input>
				<port id="0" precision="I64" />
				<port id="1" precision="I64" />
				<port id="2" precision="I64" />
			</input>
			<output>
				<port id="3" precision="I64" names="/model/transformer/Range_output_0">
					<dim>-1</dim>
				</port>
			</output>
		</layer>
		<layer id="29" name="Constant_184" type="Const" version="opset1">
			<data element_type="i64" shape="1" offset="162814992" size="8" />
			<output>
				<port id="0" precision="I64">
					<dim>1</dim>
				</port>
			</output>
		</layer>
		<layer id="30" name="/model/transformer/Unsqueeze_1" type="Unsqueeze" version="opset1">
			<input>
				<port id="0" precision="I64">
					<dim>-1</dim>
				</port>
				<port id="1" precision="I64">
					<dim>1</dim>
				</port>
			</input>
			<output>
				<port id="2" precision="I64" names="/model/transformer/Unsqueeze_1_output_0">
					<dim>1</dim>
					<dim>-1</dim>
				</port>
			</output>
		</layer>
		<layer id="31" name="Constant_188" type="Const" version="opset1">
			<data element_type="i64" shape="" offset="162814992" size="8" />
			<output>
				<port id="0" precision="I64" />
			</output>
		</layer>
		<layer id="32" name="/model/transformer/wpe/Gather" type="Gather" version="opset8">
			<data batch_dims="0" />
			<input>
				<port id="0" precision="FP32">
					<dim>2048</dim>
					<dim>768</dim>
				</port>
				<port id="1" precision="I64">
					<dim>1</dim>
					<dim>-1</dim>
				</port>
				<port id="2" precision="I64" />
			</input>
			<output>
				<port id="3" precision="FP32" names="/model/transformer/wpe/Gather_output_0">
					<dim>1</dim>
					<dim>-1</dim>
					<dim>768</dim>
				</port>
			</output>
		</layer>
		<layer id="33" name="/model/transformer/Add" type="Add" version="opset1">
			<data auto_broadcast="numpy" />
			<input>
				<port id="0" precision="FP32">
					<dim>1</dim>
					<dim>-1</dim>
					<dim>768</dim>
				</port>
				<port id="1" precision="FP32">
					<dim>1</dim>
					<dim>-1</dim>
					<dim>768</dim>
				</port>
			</input>
			<output>
				<port id="2" precision="FP32" names="/model/transformer/Add_output_0">
					<dim>1</dim>
					<dim>-1</dim>
					<dim>768</dim>
				</port>
			</output>
		</layer>
		<layer id="34" name="Constant_497" type="Const" version="opset1">
			<data element_type="i64" shape="1" offset="169106464" size="8" />
			<output>
				<port id="0" precision="I64">
					<dim>1</dim>
				</port>
			</output>
		</layer>
		<layer id="35" name="/model/transformer/h.0/ln_1/Div" type="MVN" version="opset6">
			<data eps="9.9999997473787516e-06" normalize_variance="true" eps_mode="INSIDE_SQRT" />
			<input>
				<port id="0" precision="FP32">
					<dim>1</dim>
					<dim>-1</dim>
					<dim>768</dim>
				</port>
				<port id="1" precision="I64">
					<dim>1</dim>
				</port>
			</input>
			<output>
				<port id="2" precision="FP32" names="/model/transformer/h.0/ln_1/Div_output_0">
					<dim>1</dim>
					<dim>-1</dim>
					<dim>768</dim>
				</port>
			</output>
		</layer>
		<layer id="36" name="Constant_24051" type="Const" version="opset1">
			<data element_type="f32" shape="1, 1, 768" offset="169106472" size="3072" />
			<output>
				<port id="0" precision="FP32">
					<dim>1</dim>
					<dim>1</dim>
					<dim>768</dim>
				</port>
			</output>
		</layer>
		<layer id="37" name="/model/transformer/h.0/ln_1/Mul" type="Multiply" version="opset1">
			<data auto_broadcast="numpy" />
			<input>
				<port id="0" precision="FP32">
					<dim>1</dim>
					<dim>-1</dim>
					<dim>768</dim>
				</port>
				<port id="1" precision="FP32">
					<dim>1</dim>
					<dim>1</dim>
					<dim>768</dim>
				</port>
			</input>
			<output>
				<port id="2" precision="FP32" names="/model/transformer/h.0/ln_1/Mul_output_0">
					<dim>1</dim>
					<dim>-1</dim>
					<dim>768</dim>
				</port>
			</output>
		</layer>
		<layer id="38" name="Constant_24052" type="Const" version="opset1">
			<data element_type="f32" shape="1, 1, 768" offset="169109544" size="3072" />
			<output>
				<port id="0" precision="FP32">
					<dim>1</dim>
					<dim>1</dim>
					<dim>768</dim>
				</port>
			</output>
		</layer>
		<layer id="39" name="/model/transformer/h.0/ln_1/Add_1" type="Add" version="opset1">
			<data auto_broadcast="numpy" />
			<input>
				<port id="0" precision="FP32">
					<dim>1</dim>
					<dim>-1</dim>
					<dim>768</dim>
				</port>
				<port id="1" precision="FP32">
					<dim>1</dim>
					<dim>1</dim>
					<dim>768</dim>
				</port>
			</input>
			<output>
				<port id="2" precision="FP32" names="/model/transformer/h.0/ln_1/Add_1_output_0">
					<dim>1</dim>
					<dim>-1</dim>
					<dim>768</dim>
				</port>
			</output>
		</layer>
		<layer id="40" name="Transpose_22918" type="Const" version="opset1">
			<data element_type="f32" shape="768, 768" offset="169112616" size="2359296" />
			<output>
				<port id="0" precision="FP32">
					<dim>768</dim>
					<dim>768</dim>
				</port>
			</output>
		</layer>
		<layer id="41" name="/model/transformer/h.0/attn/attention/k_proj/MatMul" type="MatMul" version="opset1">
			<data transpose_a="false" transpose_b="true" />
			<input>
				<port id="0" precision="FP32">
					<dim>1</dim>
					<dim>-1</dim>
					<dim>768</dim>
				</port>
				<port id="1" precision="FP32">
					<dim>768</dim>
					<dim>768</dim>
				</port>
			</input>
			<output>
				<port id="2" precision="FP32" names="/model/transformer/h.0/attn/attention/k_proj/MatMul_output_0">
					<dim>1</dim>
					<dim>-1</dim>
					<dim>768</dim>
				</port>
			</output>
		</layer>
		<layer id="42" name="/model/transformer/h.0/attn/attention/Concat_1" type="Const" version="opset1">
			<data element_type="i64" shape="4" offset="171471912" size="32" />
			<output>
				<port id="0" precision="I64">
					<dim>4</dim>
				</port>
			</output>
		</layer>
		<layer id="43" name="/model/transformer/h.0/attn/attention/Reshape_1" type="Reshape" version="opset1">
			<data special_zero="true" />
			<input>
				<port id="0" precision="FP32">
					<dim>1</dim>
					<dim>-1</dim>
					<dim>768</dim>
				</port>
				<port id="1" precision="I64">
					<dim>4</dim>
				</port>
			</input>
			<output>
				<port id="2" precision="FP32" names="/model/transformer/h.0/attn/attention/Reshape_1_output_0">
					<dim>1</dim>
					<dim>-1</dim>
					<dim>12</dim>
					<dim>64</dim>
				</port>
			</output>
		</layer>
		<layer id="44" name="Constant_551" type="Const" version="opset1">
			<data element_type="i64" shape="4" offset="171471944" size="32" />
			<output>
				<port id="0" precision="I64">
					<dim>4</dim>
				</port>
			</output>
		</layer>
		<layer id="45" name="/model/transformer/h.0/attn/attention/Transpose_1" type="Transpose" version="opset1">
			<input>
				<port id="0" precision="FP32">
					<dim>1</dim>
					<dim>-1</dim>
					<dim>12</dim>
					<dim>64</dim>
				</port>
				<port id="1" precision="I64">
					<dim>4</dim>
				</port>
			</input>
			<output>
				<port id="2" precision="FP32" names="/model/transformer/h.0/attn/attention/Cast_1_output_0,/model/transformer/h.0/attn/attention/Transpose_1_output_0">
					<dim>1</dim>
					<dim>12</dim>
					<dim>-1</dim>
					<dim>64</dim>
				</port>
			</output>
		</layer>
		<layer id="46" name="ShapeOf_25426" type="ShapeOf" version="opset3">
			<data output_type="i64" />
			<input>
				<port id="0" precision="FP32">
					<dim>1</dim>
					<dim>12</dim>
					<dim>-1</dim>
					<dim>64</dim>
				</port>
			</input>
			<output>
				<port id="1" precision="I64">
					<dim>4</dim>
				</port>
			</output>
		</layer>
		<layer id="47" name="Constant_25427" type="Const" version="opset1">
			<data element_type="i64" shape="1" offset="171471976" size="8" />
			<output>
				<port id="0" precision="I64">
					<dim>1</dim>
				</port>
			</output>
		</layer>
		<layer id="48" name="Constant_25428" type="Const" version="opset1">
			<data element_type="i64" shape="" offset="162814992" size="8" />
			<output>
				<port id="0" precision="I64" />
			</output>
		</layer>
		<layer id="49" name="Gather_25429" type="Gather" version="opset8">
			<data batch_dims="0" />
			<input>
				<port id="0" precision="I64">
					<dim>4</dim>
				</port>
				<port id="1" precision="I64">
					<dim>1</dim>
				</port>
				<port id="2" precision="I64" />
			</input>
			<output>
				<port id="3" precision="I64" names="/model/transformer/h.0/attn/attention/Slice_1_output_0,/model/transformer/h.0/attn/attention/Slice_output_0,/model/transformer/h.0/attn/attention/Unsqueeze_7_output_0,/model/transformer/h.0/attn/attention/Unsqueeze_8_output_0">
					<dim>1</dim>
				</port>
			</output>
		</layer>
		<layer id="50" name="/model/transformer/h.0/attn/attention/Sub" type="Subtract" version="opset1">
			<data auto_broadcast="numpy" />
			<input>
				<port id="0" precision="I64">
					<dim>1</dim>
				</port>
				<port id="1" precision="I64">
					<dim>1</dim>
				</port>
			</input>
			<output>
				<port id="2" precision="I64" names="/model/transformer/h.0/attn/attention/Sub_output_0,/model/transformer/h.0/attn/attention/Unsqueeze_6_output_0">
					<dim>1</dim>
				</port>
			</output>
		</layer>
		<layer id="51" name="/model/transformer/h.0/attn/attention/Constant_21" type="Const" version="opset1">
			<data element_type="i64" shape="1" offset="162814992" size="8" />
			<output>
				<port id="0" precision="I64" names="/model/transformer/h.0/attn/attention/Constant_21_output_0">
					<dim>1</dim>
				</port>
			</output>
		</layer>
		<layer id="52" name="Concat_21758" type="Concat" version="opset1">
			<data axis="0" />
			<input>
				<port id="0" precision="I64">
					<dim>1</dim>
				</port>
				<port id="1" precision="I64">
					<dim>1</dim>
				</port>
			</input>
			<output>
				<port id="2" precision="I64">
					<dim>2</dim>
				</port>
			</output>
		</layer>
		<layer id="53" name="Constant_22646" type="Const" version="opset1">
			<data element_type="i32" shape="1" offset="171471984" size="4" />
			<output>
				<port id="0" precision="I32">
					<dim>1</dim>
				</port>
			</output>
		</layer>
		<layer id="54" name="Concat_21759" type="Broadcast" version="opset3">
			<data mode="numpy" />
			<input>
				<port id="0" precision="I64">
					<dim>1</dim>
				</port>
				<port id="1" precision="I32">
					<dim>1</dim>
				</port>
			</input>
			<output>
				<port id="2" precision="I64">
					<dim>2</dim>
				</port>
			</output>
		</layer>
		<layer id="55" name="Constant_21763" type="Const" version="opset1">
			<data element_type="i64" shape="2" offset="171471988" size="16" />
			<output>
				<port id="0" precision="I64">
					<dim>2</dim>
				</port>
			</output>
		</layer>
		<layer id="56" name="Constant_21762" type="Const" version="opset1">
			<data element_type="i64" shape="2" offset="171472004" size="16" />
			<output>
				<port id="0" precision="I64">
					<dim>2</dim>
				</port>
			</output>
		</layer>
		<layer id="57" name="/model/transformer/h.0/attn/attention/Slice_3" type="Slice" version="opset8">
			<input>
				<port id="0" precision="BOOL">
					<dim>1</dim>
					<dim>1</dim>
					<dim>2048</dim>
					<dim>2048</dim>
				</port>
				<port id="1" precision="I64">
					<dim>2</dim>
				</port>
				<port id="2" precision="I64">
					<dim>2</dim>
				</port>
				<port id="3" precision="I64">
					<dim>2</dim>
				</port>
				<port id="4" precision="I64">
					<dim>2</dim>
				</port>
			</input>
			<output>
				<port id="5" precision="BOOL" names="/model/transformer/h.0/attn/attention/Slice_3_output_0">
					<dim>1</dim>
					<dim>1</dim>
					<dim>-1</dim>
					<dim>-1</dim>
				</port>
			</output>
		</layer>
		<layer id="58" name="Transpose_22921" type="Const" version="opset1">
			<data element_type="f32" shape="768, 768" offset="171472020" size="2359296" />
			<output>
				<port id="0" precision="FP32">
					<dim>768</dim>
					<dim>768</dim>
				</port>
			</output>
		</layer>
		<layer id="59" name="/model/transformer/h.0/attn/attention/q_proj/MatMul" type="MatMul" version="opset1">
			<data transpose_a="false" transpose_b="true" />
			<input>
				<port id="0" precision="FP32">
					<dim>1</dim>
					<dim>-1</dim>
					<dim>768</dim>
				</port>
				<port id="1" precision="FP32">
					<dim>768</dim>
					<dim>768</dim>
				</port>
			</input>
			<output>
				<port id="2" precision="FP32" names="/model/transformer/h.0/attn/attention/q_proj/MatMul_output_0">
					<dim>1</dim>
					<dim>-1</dim>
					<dim>768</dim>
				</port>
			</output>
		</layer>
		<layer id="60" name="/model/transformer/h.0/attn/attention/Concat" type="Const" version="opset1">
			<data element_type="i64" shape="4" offset="171471912" size="32" />
			<output>
				<port id="0" precision="I64">
					<dim>4</dim>
				</port>
			</output>
		</layer>
		<layer id="61" name="/model/transformer/h.0/attn/attention/Reshape" type="Reshape" version="opset1">
			<data special_zero="true" />
			<input>
				<port id="0" precision="FP32">
					<dim>1</dim>
					<dim>-1</dim>
					<dim>768</dim>
				</port>
				<port id="1" precision="I64">
					<dim>4</dim>
				</port>
			</input>
			<output>
				<port id="2" precision="FP32" names="/model/transformer/h.0/attn/attention/Reshape_output_0">
					<dim>1</dim>
					<dim>-1</dim>
					<dim>12</dim>
					<dim>64</dim>
				</port>
			</output>
		</layer>
		<layer id="62" name="Constant_531" type="Const" version="opset1">
			<data element_type="i64" shape="4" offset="171471944" size="32" />
			<output>
				<port id="0" precision="I64">
					<dim>4</dim>
				</port>
			</output>
		</layer>
		<layer id="63" name="/model/transformer/h.0/attn/attention/Transpose" type="Transpose" version="opset1">
			<input>
				<port id="0" precision="FP32">
					<dim>1</dim>
					<dim>-1</dim>
					<dim>12</dim>
					<dim>64</dim>
				</port>
				<port id="1" precision="I64">
					<dim>4</dim>
				</port>
			</input>
			<output>
				<port id="2" precision="FP32" names="/model/transformer/h.0/attn/attention/Cast_output_0,/model/transformer/h.0/attn/attention/Transpose_output_0">
					<dim>1</dim>
					<dim>12</dim>
					<dim>-1</dim>
					<dim>64</dim>
				</port>
			</output>
		</layer>
		<layer id="64" name="/model/transformer/h.0/attn/attention/MatMul" type="MatMul" version="opset1">
			<data transpose_a="false" transpose_b="true" />
			<input>
				<port id="0" precision="FP32">
					<dim>1</dim>
					<dim>12</dim>
					<dim>-1</dim>
					<dim>64</dim>
				</port>
				<port id="1" precision="FP32">
					<dim>1</dim>
					<dim>12</dim>
					<dim>-1</dim>
					<dim>64</dim>
				</port>
			</input>
			<output>
				<port id="2" precision="FP32" names="/model/transformer/h.0/attn/attention/MatMul_output_0">
					<dim>1</dim>
					<dim>12</dim>
					<dim>-1</dim>
					<dim>-1</dim>
				</port>
			</output>
		</layer>
		<layer id="65" name="/model/transformer/h.0/attn/attention/Constant_23" type="Const" version="opset1">
			<data element_type="f32" shape="" offset="173831316" size="4" />
			<output>
				<port id="0" precision="FP32" names="/model/transformer/h.0/attn/attention/Constant_23_output_0" />
			</output>
		</layer>
		<layer id="66" name="/model/transformer/h.0/attn/attention/Where" type="Select" version="opset1">
			<data auto_broadcast="numpy" />
			<input>
				<port id="0" precision="BOOL">
					<dim>1</dim>
					<dim>1</dim>
					<dim>-1</dim>
					<dim>-1</dim>
				</port>
				<port id="1" precision="FP32">
					<dim>1</dim>
					<dim>12</dim>
					<dim>-1</dim>
					<dim>-1</dim>
				</port>
				<port id="2" precision="FP32" />
			</input>
			<output>
				<port id="3" precision="FP32" names="/model/transformer/h.0/attn/attention/Where_output_0">
					<dim>1</dim>
					<dim>12</dim>
					<dim>-1</dim>
					<dim>-1</dim>
				</port>
			</output>
		</layer>
		<layer id="67" name="Constant_24053" type="Const" version="opset1">
			<data element_type="f32" shape="1, 1, 1, 1" offset="173831320" size="4" />
			<output>
				<port id="0" precision="FP32">
					<dim>1</dim>
					<dim>1</dim>
					<dim>1</dim>
					<dim>1</dim>
				</port>
			</output>
		</layer>
		<layer id="68" name="Constant_432" type="Const" version="opset1">
			<data element_type="i64" shape="1" offset="169106456" size="8" />
			<output>
				<port id="0" precision="I64">
					<dim>1</dim>
				</port>
			</output>
		</layer>
		<layer id="69" name="/model/transformer/Unsqueeze_10" type="Unsqueeze" version="opset1">
			<input>
				<port id="0" precision="I64">
					<dim>1</dim>
					<dim>-1</dim>
				</port>
				<port id="1" precision="I64">
					<dim>1</dim>
				</port>
			</input>
			<output>
				<port id="2" precision="I64" names="/model/transformer/Unsqueeze_10_output_0">
					<dim>1</dim>
					<dim>1</dim>
					<dim>-1</dim>
				</port>
			</output>
		</layer>
		<layer id="70" name="Constant_434" type="Const" version="opset1">
			<data element_type="i64" shape="1" offset="171471976" size="8" />
			<output>
				<port id="0" precision="I64">
					<dim>1</dim>
				</port>
			</output>
		</layer>
		<layer id="71" name="/model/transformer/Unsqueeze_11" type="Unsqueeze" version="opset1">
			<input>
				<port id="0" precision="I64">
					<dim>1</dim>
					<dim>1</dim>
					<dim>-1</dim>
				</port>
				<port id="1" precision="I64">
					<dim>1</dim>
				</port>
			</input>
			<output>
				<port id="2" precision="I64" names="/model/transformer/Unsqueeze_11_output_0">
					<dim>1</dim>
					<dim>1</dim>
					<dim>1</dim>
					<dim>-1</dim>
				</port>
			</output>
		</layer>
		<layer id="72" name="ShapeOf_25416" type="ShapeOf" version="opset3">
			<data output_type="i64" />
			<input>
				<port id="0" precision="I64">
					<dim>1</dim>
					<dim>-1</dim>
				</port>
			</input>
			<output>
				<port id="1" precision="I64">
					<dim>2</dim>
				</port>
			</output>
		</layer>
		<layer id="73" name="Constant_25417" type="Const" version="opset1">
			<data element_type="i64" shape="1" offset="162814992" size="8" />
			<output>
				<port id="0" precision="I64">
					<dim>1</dim>
				</port>
			</output>
		</layer>
		<layer id="74" name="Constant_25418" type="Const" version="opset1">
			<data element_type="i64" shape="" offset="162814992" size="8" />
			<output>
				<port id="0" precision="I64" />
			</output>
		</layer>
		<layer id="75" name="Gather_25419" type="Gather" version="opset8">
			<data batch_dims="0" />
			<input>
				<port id="0" precision="I64">
					<dim>2</dim>
				</port>
				<port id="1" precision="I64">
					<dim>1</dim>
				</port>
				<port id="2" precision="I64" />
			</input>
			<output>
				<port id="3" precision="I64" names="/model/transformer/Gather_1_output_0,/model/transformer/Unsqueeze_12_output_0,/model/transformer/Unsqueeze_7_output_0">
					<dim>1</dim>
				</port>
			</output>
		</layer>
		<layer id="76" name="/model/transformer/Constant_20" type="Const" version="opset1">
			<data element_type="i64" shape="1" offset="169106456" size="8" />
			<output>
				<port id="0" precision="I64" names="/model/transformer/Constant_20_output_0">
					<dim>1</dim>
				</port>
			</output>
		</layer>
		<layer id="77" name="Constant_25413" type="Const" version="opset1">
			<data element_type="i64" shape="1" offset="169106456" size="8" />
			<output>
				<port id="0" precision="I64">
					<dim>1</dim>
				</port>
			</output>
		</layer>
		<layer id="78" name="Reshape_25414" type="Reshape" version="opset1">
			<data special_zero="false" />
			<input>
				<port id="0" precision="I64" />
				<port id="1" precision="I64">
					<dim>1</dim>
				</port>
			</input>
			<output>
				<port id="2" precision="I64" names="/model/transformer/Unsqueeze_13_output_0,/model/transformer/Unsqueeze_15_output_0,/model/transformer/Unsqueeze_2_output_0,/model/transformer/Unsqueeze_3_output_0,/model/transformer/Unsqueeze_8_output_0,/model/transformer/Unsqueeze_output_0">
					<dim>1</dim>
				</port>
			</output>
		</layer>
		<layer id="79" name="Constant_25422" type="Const" version="opset1">
			<data element_type="i64" shape="1" offset="169106456" size="8" />
			<output>
				<port id="0" precision="I64">
					<dim>1</dim>
				</port>
			</output>
		</layer>
		<layer id="80" name="Constant_25423" type="Const" version="opset1">
			<data element_type="i64" shape="" offset="162814992" size="8" />
			<output>
				<port id="0" precision="I64" />
			</output>
		</layer>
		<layer id="81" name="Gather_25424" type="Gather" version="opset8">
			<data batch_dims="0" />
			<input>
				<port id="0" precision="I64">
					<dim>2</dim>
				</port>
				<port id="1" precision="I64">
					<dim>1</dim>
				</port>
				<port id="2" precision="I64" />
			</input>
			<output>
				<port id="3" precision="I64" names="/model/transformer/Gather_2_output_0,/model/transformer/Unsqueeze_14_output_0">
					<dim>1</dim>
				</port>
			</output>
		</layer>
		<layer id="82" name="/model/transformer/Concat_4" type="Concat" version="opset1">
			<data axis="0" />
			<input>
				<port id="0" precision="I64">
					<dim>1</dim>
				</port>
				<port id="1" precision="I64">
					<dim>1</dim>
				</port>
				<port id="2" precision="I64">
					<dim>1</dim>
				</port>
				<port id="3" precision="I64">
					<dim>1</dim>
				</port>
			</input>
			<output>
				<port id="4" precision="I64" names="/model/transformer/Concat_4_output_0,/model/transformer/Reshape_3_output_0">
					<dim>4</dim>
				</port>
			</output>
		</layer>
		<layer id="83" name="/model/transformer/Mul_1" type="Const" version="opset1">
			<data element_type="i64" shape="4" offset="173831324" size="32" />
			<output>
				<port id="0" precision="I64" names="/model/transformer/Mul_1_output_0">
					<dim>4</dim>
				</port>
			</output>
		</layer>
		<layer id="84" name="/model/transformer/Equal_1" type="Equal" version="opset1">
			<data auto_broadcast="numpy" />
			<input>
				<port id="0" precision="I64">
					<dim>4</dim>
				</port>
				<port id="1" precision="I64">
					<dim>4</dim>
				</port>
			</input>
			<output>
				<port id="2" precision="BOOL" names="/model/transformer/Equal_1_output_0">
					<dim>4</dim>
				</port>
			</output>
		</layer>
		<layer id="85" name="/model/transformer/ConstantOfShape_2" type="Const" version="opset1">
			<data element_type="i64" shape="4" offset="173831356" size="32" />
			<output>
				<port id="0" precision="I64" names="/model/transformer/ConstantOfShape_2_output_0">
					<dim>4</dim>
				</port>
			</output>
		</layer>
		<layer id="86" name="/model/transformer/Where_2" type="Select" version="opset1">
			<data auto_broadcast="numpy" />
			<input>
				<port id="0" precision="BOOL">
					<dim>4</dim>
				</port>
				<port id="1" precision="I64">
					<dim>4</dim>
				</port>
				<port id="2" precision="I64">
					<dim>4</dim>
				</port>
			</input>
			<output>
				<port id="3" precision="I64" names="/model/transformer/Where_2_output_0">
					<dim>4</dim>
				</port>
			</output>
		</layer>
		<layer id="87" name="/model/transformer/Expand_1" type="Broadcast" version="opset3">
			<data mode="bidirectional" />
			<input>
				<port id="0" precision="I64">
					<dim>1</dim>
					<dim>1</dim>
					<dim>1</dim>
					<dim>-1</dim>
				</port>
				<port id="1" precision="I64">
					<dim>4</dim>
				</port>
			</input>
			<output>
				<port id="2" precision="I64" names="/model/transformer/Expand_1_output_0">
					<dim>1</dim>
					<dim>1</dim>
					<dim>-1</dim>
					<dim>-1</dim>
				</port>
			</output>
		</layer>
		<layer id="88" name="/model/transformer/Cast_4" type="Convert" version="opset1">
			<data destination_type="f32" />
			<input>
				<port id="0" precision="I64">
					<dim>1</dim>
					<dim>1</dim>
					<dim>-1</dim>
					<dim>-1</dim>
				</port>
			</input>
			<output>
				<port id="1" precision="FP32" names="/model/transformer/Cast_4_output_0">
					<dim>1</dim>
					<dim>1</dim>
					<dim>-1</dim>
					<dim>-1</dim>
				</port>
			</output>
		</layer>
		<layer id="89" name="/model/transformer/Sub_1" type="Subtract" version="opset1">
			<data auto_broadcast="numpy" />
			<input>
				<port id="0" precision="FP32">
					<dim>1</dim>
					<dim>1</dim>
					<dim>1</dim>
					<dim>1</dim>
				</port>
				<port id="1" precision="FP32">
					<dim>1</dim>
					<dim>1</dim>
					<dim>-1</dim>
					<dim>-1</dim>
				</port>
			</input>
			<output>
				<port id="2" precision="FP32" names="/model/transformer/Sub_1_output_0">
					<dim>1</dim>
					<dim>1</dim>
					<dim>-1</dim>
					<dim>-1</dim>
				</port>
			</output>
		</layer>
		<layer id="90" name="/model/transformer/Cast_5" type="Convert" version="opset1">
			<data destination_type="boolean" />
			<input>
				<port id="0" precision="FP32">
					<dim>1</dim>
					<dim>1</dim>
					<dim>-1</dim>
					<dim>-1</dim>
				</port>
			</input>
			<output>
				<port id="1" precision="BOOL" names="/model/transformer/Cast_5_output_0,/model/transformer/Cast_6_output_0">
					<dim>1</dim>
					<dim>1</dim>
					<dim>-1</dim>
					<dim>-1</dim>
				</port>
			</output>
		</layer>
		<layer id="91" name="/model/transformer/Constant_24" type="Const" version="opset1">
			<data element_type="f32" shape="" offset="173831316" size="4" />
			<output>
				<port id="0" precision="FP32" names="/model/transformer/Constant_24_output_0" />
			</output>
		</layer>
		<layer id="92" name="/model/transformer/Where_3" type="Select" version="opset1">
			<data auto_broadcast="numpy" />
			<input>
				<port id="0" precision="BOOL">
					<dim>1</dim>
					<dim>1</dim>
					<dim>-1</dim>
					<dim>-1</dim>
				</port>
				<port id="1" precision="FP32" />
				<port id="2" precision="FP32">
					<dim>1</dim>
					<dim>1</dim>
					<dim>-1</dim>
					<dim>-1</dim>
				</port>
			</input>
			<output>
				<port id="3" precision="FP32" names="/model/transformer/Cast_7_output_0,/model/transformer/Where_3_output_0">
					<dim>1</dim>
					<dim>1</dim>
					<dim>-1</dim>
					<dim>-1</dim>
				</port>
			</output>
		</layer>
		<layer id="93" name="/model/transformer/Cast_8" type="Convert" version="opset1">
			<data destination_type="boolean" />
			<input>
				<port id="0" precision="FP32">
					<dim>1</dim>
					<dim>1</dim>
					<dim>-1</dim>
					<dim>-1</dim>
				</port>
			</input>
			<output>
				<port id="1" precision="BOOL" names="/model/transformer/Cast_8_output_0,/model/transformer/Cast_9_output_0">
					<dim>1</dim>
					<dim>1</dim>
					<dim>-1</dim>
					<dim>-1</dim>
				</port>
			</output>
		</layer>
		<layer id="94" name="/model/transformer/Constant_25" type="Const" version="opset1">
			<data element_type="f32" shape="" offset="173831316" size="4" />
			<output>
				<port id="0" precision="FP32" names="/model/transformer/Constant_25_output_0" />
			</output>
		</layer>
		<layer id="95" name="/model/transformer/Constant_8" type="Const" version="opset1">
			<data element_type="i64" shape="" offset="162814992" size="8" />
			<output>
				<port id="0" precision="I64" names="/model/transformer/Constant_8_output_0" />
			</output>
		</layer>
		<layer id="96" name="Constant_202" type="Const" version="opset1">
			<data element_type="f32" shape="" offset="173831316" size="4" />
			<output>
				<port id="0" precision="FP32" />
			</output>
		</layer>
		<layer id="97" name="Constant_22648" type="Const" version="opset1">
			<data element_type="i32" shape="1" offset="171471984" size="4" />
			<output>
				<port id="0" precision="I32">
					<dim>1</dim>
				</port>
			</output>
		</layer>
		<layer id="98" name="/model/transformer/Concat_1" type="Broadcast" version="opset3">
			<data mode="numpy" />
			<input>
				<port id="0" precision="I64">
					<dim>1</dim>
				</port>
				<port id="1" precision="I32">
					<dim>1</dim>
				</port>
			</input>
			<output>
				<port id="2" precision="I64" names="/model/transformer/Concat_1_output_0">
					<dim>2</dim>
				</port>
			</output>
		</layer>
		<layer id="99" name="/model/transformer/ConstantOfShape" type="Broadcast" version="opset3">
			<data mode="numpy" />
			<input>
				<port id="0" precision="FP32" />
				<port id="1" precision="I64">
					<dim>2</dim>
				</port>
			</input>
			<output>
				<port id="2" precision="FP32" names="/model/transformer/ConstantOfShape_output_0">
					<dim>-1</dim>
					<dim>-1</dim>
				</port>
			</output>
		</layer>
		<layer id="100" name="ShapeOf_25435" type="ShapeOf" version="opset3">
			<data output_type="i64" />
			<input>
				<port id="0" precision="FP32">
					<dim>-1</dim>
					<dim>-1</dim>
				</port>
			</input>
			<output>
				<port id="1" precision="I64">
					<dim>2</dim>
				</port>
			</output>
		</layer>
		<layer id="101" name="Constant_25436" type="Const" version="opset1">
			<data element_type="i64" shape="1" offset="169106456" size="8" />
			<output>
				<port id="0" precision="I64">
					<dim>1</dim>
				</port>
			</output>
		</layer>
		<layer id="102" name="Constant_25437" type="Const" version="opset1">
			<data element_type="i64" shape="" offset="162814992" size="8" />
			<output>
				<port id="0" precision="I64" />
			</output>
		</layer>
		<layer id="103" name="Gather_25438" type="Gather" version="opset8">
			<data batch_dims="0" />
			<input>
				<port id="0" precision="I64">
					<dim>2</dim>
				</port>
				<port id="1" precision="I64">
					<dim>1</dim>
				</port>
				<port id="2" precision="I64" />
			</input>
			<output>
				<port id="3" precision="I64" names="/model/transformer/Slice_1_output_0,/model/transformer/Slice_output_0,/model/transformer/Unsqueeze_4_output_0">
					<dim>1</dim>
				</port>
			</output>
		</layer>
		<layer id="104" name="Squeeze_25440" type="Squeeze" version="opset1">
			<input>
				<port id="0" precision="I64">
					<dim>1</dim>
				</port>
			</input>
			<output>
				<port id="1" precision="I64" names="/model/transformer/Cast_1_output_0,/model/transformer/Squeeze_1_output_0,/model/transformer/Squeeze_output_0" />
			</output>
		</layer>
		<layer id="105" name="/model/transformer/Constant_9" type="Const" version="opset1">
			<data element_type="i64" shape="" offset="169106456" size="8" />
			<output>
				<port id="0" precision="I64" names="/model/transformer/Constant_9_output_0" />
			</output>
		</layer>
		<layer id="106" name="/model/transformer/Range_1" type="Range" version="opset4">
			<data output_type="i64" />
			<input>
				<port id="0" precision="I64" />
				<port id="1" precision="I64" />
				<port id="2" precision="I64" />
			</input>
			<output>
				<port id="3" precision="I64" names="/model/transformer/Range_1_output_0">
					<dim>-1</dim>
				</port>
			</output>
		</layer>
		<layer id="107" name="Constant_24054" type="Const" version="opset1">
			<data element_type="i64" shape="1" offset="169106456" size="8" />
			<output>
				<port id="0" precision="I64">
					<dim>1</dim>
				</port>
			</output>
		</layer>
		<layer id="108" name="/model/transformer/Add_1" type="Add" version="opset1">
			<data auto_broadcast="numpy" />
			<input>
				<port id="0" precision="I64">
					<dim>-1</dim>
				</port>
				<port id="1" precision="I64">
					<dim>1</dim>
				</port>
			</input>
			<output>
				<port id="2" precision="I64" names="/model/transformer/Add_1_output_0">
					<dim>-1</dim>
				</port>
			</output>
		</layer>
		<layer id="109" name="Constant_25544" type="Const" version="opset1">
			<data element_type="i64" shape="2" offset="173831388" size="16" />
			<output>
				<port id="0" precision="I64">
					<dim>2</dim>
				</port>
			</output>
		</layer>
		<layer id="110" name="/model/transformer/Reshape_1" type="Reshape" version="opset1">
			<data special_zero="true" />
			<input>
				<port id="0" precision="I64">
					<dim>-1</dim>
				</port>
				<port id="1" precision="I64">
					<dim>2</dim>
				</port>
			</input>
			<output>
				<port id="2" precision="I64" names="/model/transformer/Reshape_1_output_0">
					<dim>-1</dim>
					<dim>1</dim>
				</port>
			</output>
		</layer>
		<layer id="111" name="/model/transformer/Less" type="Less" version="opset1">
			<data auto_broadcast="numpy" />
			<input>
				<port id="0" precision="I64">
					<dim>-1</dim>
				</port>
				<port id="1" precision="I64">
					<dim>-1</dim>
					<dim>1</dim>
				</port>
			</input>
			<output>
				<port id="2" precision="BOOL" names="/model/transformer/Cast_2_output_0,/model/transformer/Less_output_0">
					<dim>-1</dim>
					<dim>-1</dim>
				</port>
			</output>
		</layer>
		<layer id="112" name="/model/transformer/Constant_15" type="Const" version="opset1">
			<data element_type="f32" shape="" offset="173831404" size="4" />
			<output>
				<port id="0" precision="FP32" names="/model/transformer/Constant_15_output_0" />
			</output>
		</layer>
		<layer id="113" name="/model/transformer/Where" type="Select" version="opset1">
			<data auto_broadcast="numpy" />
			<input>
				<port id="0" precision="BOOL">
					<dim>-1</dim>
					<dim>-1</dim>
				</port>
				<port id="1" precision="FP32" />
				<port id="2" precision="FP32">
					<dim>-1</dim>
					<dim>-1</dim>
				</port>
			</input>
			<output>
				<port id="3" precision="FP32" names="/model/transformer/Cast_3_output_0,/model/transformer/Where_output_0">
					<dim>-1</dim>
					<dim>-1</dim>
				</port>
			</output>
		</layer>
		<layer id="114" name="Constant_262" type="Const" version="opset1">
			<data element_type="i64" shape="1" offset="162814992" size="8" />
			<output>
				<port id="0" precision="I64">
					<dim>1</dim>
				</port>
			</output>
		</layer>
		<layer id="115" name="/model/transformer/Unsqueeze_5" type="Unsqueeze" version="opset1">
			<input>
				<port id="0" precision="FP32">
					<dim>-1</dim>
					<dim>-1</dim>
				</port>
				<port id="1" precision="I64">
					<dim>1</dim>
				</port>
			</input>
			<output>
				<port id="2" precision="FP32" names="/model/transformer/Unsqueeze_5_output_0">
					<dim>1</dim>
					<dim>-1</dim>
					<dim>-1</dim>
				</port>
			</output>
		</layer>
		<layer id="116" name="Constant_264" type="Const" version="opset1">
			<data element_type="i64" shape="1" offset="169106456" size="8" />
			<output>
				<port id="0" precision="I64">
					<dim>1</dim>
				</port>
			</output>
		</layer>
		<layer id="117" name="/model/transformer/Unsqueeze_6" type="Unsqueeze" version="opset1">
			<input>
				<port id="0" precision="FP32">
					<dim>1</dim>
					<dim>-1</dim>
					<dim>-1</dim>
				</port>
				<port id="1" precision="I64">
					<dim>1</dim>
				</port>
			</input>
			<output>
				<port id="2" precision="FP32" names="/model/transformer/Unsqueeze_6_output_0">
					<dim>1</dim>
					<dim>1</dim>
					<dim>-1</dim>
					<dim>-1</dim>
				</port>
			</output>
		</layer>
		<layer id="118" name="/model/transformer/Constant_16" type="Const" version="opset1">
			<data element_type="i64" shape="1" offset="169106456" size="8" />
			<output>
				<port id="0" precision="I64" names="/model/transformer/Constant_16_output_0">
					<dim>1</dim>
				</port>
			</output>
		</layer>
		<layer id="119" name="/model/transformer/Sub" type="Subtract" version="opset1">
			<data auto_broadcast="numpy" />
			<input>
				<port id="0" precision="I64">
					<dim>1</dim>
				</port>
				<port id="1" precision="I64">
					<dim>1</dim>
				</port>
			</input>
			<output>
				<port id="2" precision="I64" names="/model/transformer/Sub_output_0">
					<dim>1</dim>
				</port>
			</output>
		</layer>
		<layer id="120" name="/model/transformer/Add_2" type="Add" version="opset1">
			<data auto_broadcast="numpy" />
			<input>
				<port id="0" precision="I64">
					<dim>1</dim>
				</port>
				<port id="1" precision="I64">
					<dim>1</dim>
				</port>
			</input>
			<output>
				<port id="2" precision="I64" names="/model/transformer/Add_2_output_0,/model/transformer/Unsqueeze_9_output_0">
					<dim>1</dim>
				</port>
			</output>
		</layer>
		<layer id="121" name="/model/transformer/Concat_3" type="Concat" version="opset1">
			<data axis="0" />
			<input>
				<port id="0" precision="I64">
					<dim>1</dim>
				</port>
				<port id="1" precision="I64">
					<dim>1</dim>
				</port>
				<port id="2" precision="I64">
					<dim>1</dim>
				</port>
				<port id="3" precision="I64">
					<dim>1</dim>
				</port>
			</input>
			<output>
				<port id="4" precision="I64" names="/model/transformer/Concat_3_output_0,/model/transformer/Reshape_2_output_0">
					<dim>4</dim>
				</port>
			</output>
		</layer>
		<layer id="122" name="/model/transformer/Mul" type="Const" version="opset1">
			<data element_type="i64" shape="4" offset="173831324" size="32" />
			<output>
				<port id="0" precision="I64" names="/model/transformer/Mul_output_0">
					<dim>4</dim>
				</port>
			</output>
		</layer>
		<layer id="123" name="/model/transformer/Equal" type="Equal" version="opset1">
			<data auto_broadcast="numpy" />
			<input>
				<port id="0" precision="I64">
					<dim>4</dim>
				</port>
				<port id="1" precision="I64">
					<dim>4</dim>
				</port>
			</input>
			<output>
				<port id="2" precision="BOOL" names="/model/transformer/Equal_output_0">
					<dim>4</dim>
				</port>
			</output>
		</layer>
		<layer id="124" name="/model/transformer/ConstantOfShape_1" type="Const" version="opset1">
			<data element_type="i64" shape="4" offset="173831356" size="32" />
			<output>
				<port id="0" precision="I64" names="/model/transformer/ConstantOfShape_1_output_0">
					<dim>4</dim>
				</port>
			</output>
		</layer>
		<layer id="125" name="/model/transformer/Where_1" type="Select" version="opset1">
			<data auto_broadcast="numpy" />
			<input>
				<port id="0" precision="BOOL">
					<dim>4</dim>
				</port>
				<port id="1" precision="I64">
					<dim>4</dim>
				</port>
				<port id="2" precision="I64">
					<dim>4</dim>
				</port>
			</input>
			<output>
				<port id="3" precision="I64" names="/model/transformer/Where_1_output_0">
					<dim>4</dim>
				</port>
			</output>
		</layer>
		<layer id="126" name="/model/transformer/Expand" type="Broadcast" version="opset3">
			<data mode="bidirectional" />
			<input>
				<port id="0" precision="FP32">
					<dim>1</dim>
					<dim>1</dim>
					<dim>-1</dim>
					<dim>-1</dim>
				</port>
				<port id="1" precision="I64">
					<dim>4</dim>
				</port>
			</input>
			<output>
				<port id="2" precision="FP32" names="/model/transformer/Expand_output_0">
					<dim>1</dim>
					<dim>1</dim>
					<dim>-1</dim>
					<dim>-1</dim>
				</port>
			</output>
		</layer>
		<layer id="127" name="/model/transformer/Where_4" type="Select" version="opset1">
			<data auto_broadcast="numpy" />
			<input>
				<port id="0" precision="BOOL">
					<dim>1</dim>
					<dim>1</dim>
					<dim>-1</dim>
					<dim>-1</dim>
				</port>
				<port id="1" precision="FP32" />
				<port id="2" precision="FP32">
					<dim>1</dim>
					<dim>1</dim>
					<dim>-1</dim>
					<dim>-1</dim>
				</port>
			</input>
			<output>
				<port id="3" precision="FP32" names="/model/transformer/Where_4_output_0">
					<dim>1</dim>
					<dim>1</dim>
					<dim>-1</dim>
					<dim>-1</dim>
				</port>
			</output>
		</layer>
		<layer id="128" name="/model/transformer/h.0/attn/attention/Add" type="Add" version="opset1">
			<data auto_broadcast="numpy" />
			<input>
				<port id="0" precision="FP32">
					<dim>1</dim>
					<dim>12</dim>
					<dim>-1</dim>
					<dim>-1</dim>
				</port>
				<port id="1" precision="FP32">
					<dim>1</dim>
					<dim>1</dim>
					<dim>-1</dim>
					<dim>-1</dim>
				</port>
			</input>
			<output>
				<port id="2" precision="FP32" names="/model/transformer/h.0/attn/attention/Add_output_0">
					<dim>1</dim>
					<dim>12</dim>
					<dim>-1</dim>
					<dim>-1</dim>
				</port>
			</output>
		</layer>
		<layer id="129" name="/model/transformer/h.0/attn/attention/Softmax" type="SoftMax" version="opset8">
			<data axis="3" />
			<input>
				<port id="0" precision="FP32">
					<dim>1</dim>
					<dim>12</dim>
					<dim>-1</dim>
					<dim>-1</dim>
				</port>
			</input>
			<output>
				<port id="1" precision="FP32" names="/model/transformer/h.0/attn/attention/Cast_2_output_0,/model/transformer/h.0/attn/attention/Softmax_output_0">
					<dim>1</dim>
					<dim>12</dim>
					<dim>-1</dim>
					<dim>-1</dim>
				</port>
			</output>
		</layer>
		<layer id="130" name="Transpose_22930" type="Const" version="opset1">
			<data element_type="f32" shape="768, 768" offset="173831408" size="2359296" />
			<output>
				<port id="0" precision="FP32">
					<dim>768</dim>
					<dim>768</dim>
				</port>
			</output>
		</layer>
		<layer id="131" name="/model/transformer/h.0/attn/attention/v_proj/MatMul" type="MatMul" version="opset1">
			<data transpose_a="false" transpose_b="true" />
			<input>
				<port id="0" precision="FP32">
					<dim>1</dim>
					<dim>-1</dim>
					<dim>768</dim>
				</port>
				<port id="1" precision="FP32">
					<dim>768</dim>
					<dim>768</dim>
				</port>
			</input>
			<output>
				<port id="2" precision="FP32" names="/model/transformer/h.0/attn/attention/v_proj/MatMul_output_0">
					<dim>1</dim>
					<dim>-1</dim>
					<dim>768</dim>
				</port>
			</output>
		</layer>
		<layer id="132" name="/model/transformer/h.0/attn/attention/Concat_2" type="Const" version="opset1">
			<data element_type="i64" shape="4" offset="171471912" size="32" />
			<output>
				<port id="0" precision="I64">
					<dim>4</dim>
				</port>
			</output>
		</layer>
		<layer id="133" name="/model/transformer/h.0/attn/attention/Reshape_2" type="Reshape" version="opset1">
			<data special_zero="true" />
			<input>
				<port id="0" precision="FP32">
					<dim>1</dim>
					<dim>-1</dim>
					<dim>768</dim>
				</port>
				<port id="1" precision="I64">
					<dim>4</dim>
				</port>
			</input>
			<output>
				<port id="2" precision="FP32" names="/model/transformer/h.0/attn/attention/Reshape_2_output_0">
					<dim>1</dim>
					<dim>-1</dim>
					<dim>12</dim>
					<dim>64</dim>
				</port>
			</output>
		</layer>
		<layer id="134" name="Constant_571" type="Const" version="opset1">
			<data element_type="i64" shape="4" offset="171471944" size="32" />
			<output>
				<port id="0" precision="I64">
					<dim>4</dim>
				</port>
			</output>
		</layer>
		<layer id="135" name="/model/transformer/h.0/attn/attention/Transpose_2" type="Transpose" version="opset1">
			<input>
				<port id="0" precision="FP32">
					<dim>1</dim>
					<dim>-1</dim>
					<dim>12</dim>
					<dim>64</dim>
				</port>
				<port id="1" precision="I64">
					<dim>4</dim>
				</port>
			</input>
			<output>
				<port id="2" precision="FP32" names="/model/transformer/h.0/attn/attention/Transpose_2_output_0">
					<dim>1</dim>
					<dim>12</dim>
					<dim>-1</dim>
					<dim>64</dim>
				</port>
			</output>
		</layer>
		<layer id="136" name="/model/transformer/h.0/attn/attention/MatMul_1" type="MatMul" version="opset1">
			<data transpose_a="false" transpose_b="false" />
			<input>
				<port id="0" precision="FP32">
					<dim>1</dim>
					<dim>12</dim>
					<dim>-1</dim>
					<dim>-1</dim>
				</port>
				<port id="1" precision="FP32">
					<dim>1</dim>
					<dim>12</dim>
					<dim>-1</dim>
					<dim>64</dim>
				</port>
			</input>
			<output>
				<port id="2" precision="FP32" names="/model/transformer/h.0/attn/attention/MatMul_1_output_0">
					<dim>1</dim>
					<dim>12</dim>
					<dim>-1</dim>
					<dim>64</dim>
				</port>
			</output>
		</layer>
		<layer id="137" name="Constant_701" type="Const" version="opset1">
			<data element_type="i64" shape="4" offset="171471944" size="32" />
			<output>
				<port id="0" precision="I64">
					<dim>4</dim>
				</port>
			</output>
		</layer>
		<layer id="138" name="/model/transformer/h.0/attn/attention/Transpose_4" type="Transpose" version="opset1">
			<input>
				<port id="0" precision="FP32">
					<dim>1</dim>
					<dim>12</dim>
					<dim>-1</dim>
					<dim>64</dim>
				</port>
				<port id="1" precision="I64">
					<dim>4</dim>
				</port>
			</input>
			<output>
				<port id="2" precision="FP32" names="/model/transformer/h.0/attn/attention/Transpose_4_output_0">
					<dim>1</dim>
					<dim>-1</dim>
					<dim>12</dim>
					<dim>64</dim>
				</port>
			</output>
		</layer>
		<layer id="139" name="/model/transformer/h.0/attn/attention/Concat_3" type="Const" version="opset1">
			<data element_type="i64" shape="3" offset="176190704" size="24" />
			<output>
				<port id="0" precision="I64">
					<dim>3</dim>
				</port>
			</output>
		</layer>
		<layer id="140" name="/model/transformer/h.0/attn/attention/Reshape_3" type="Reshape" version="opset1">
			<data special_zero="true" />
			<input>
				<port id="0" precision="FP32">
					<dim>1</dim>
					<dim>-1</dim>
					<dim>12</dim>
					<dim>64</dim>
				</port>
				<port id="1" precision="I64">
					<dim>3</dim>
				</port>
			</input>
			<output>
				<port id="2" precision="FP32" names="/model/transformer/h.0/attn/attention/Reshape_3_output_0">
					<dim>1</dim>
					<dim>-1</dim>
					<dim>768</dim>
				</port>
			</output>
		</layer>
		<layer id="141" name="Transpose_22933" type="Const" version="opset1">
			<data element_type="f32" shape="768, 768" offset="176190728" size="2359296" />
			<output>
				<port id="0" precision="FP32">
					<dim>768</dim>
					<dim>768</dim>
				</port>
			</output>
		</layer>
		<layer id="142" name="/model/transformer/h.0/attn/attention/out_proj/MatMul" type="MatMul" version="opset1">
			<data transpose_a="false" transpose_b="true" />
			<input>
				<port id="0" precision="FP32">
					<dim>1</dim>
					<dim>-1</dim>
					<dim>768</dim>
				</port>
				<port id="1" precision="FP32">
					<dim>768</dim>
					<dim>768</dim>
				</port>
			</input>
			<output>
				<port id="2" precision="FP32" names="/model/transformer/h.0/attn/attention/out_proj/MatMul_output_0">
					<dim>1</dim>
					<dim>-1</dim>
					<dim>768</dim>
				</port>
			</output>
		</layer>
		<layer id="143" name="/model/transformer/h.0/attn/attention/out_proj/Add" type="Add" version="opset1">
			<data auto_broadcast="numpy" />
			<input>
				<port id="0" precision="FP32">
					<dim>1</dim>
					<dim>1</dim>
					<dim>768</dim>
				</port>
				<port id="1" precision="FP32">
					<dim>1</dim>
					<dim>-1</dim>
					<dim>768</dim>
				</port>
			</input>
			<output>
				<port id="2" precision="FP32" names="/model/transformer/h.0/attn/attention/out_proj/Add_output_0">
					<dim>1</dim>
					<dim>-1</dim>
					<dim>768</dim>
				</port>
			</output>
		</layer>
		<layer id="144" name="/model/transformer/h.0/Add" type="Add" version="opset1">
			<data auto_broadcast="numpy" />
			<input>
				<port id="0" precision="FP32">
					<dim>1</dim>
					<dim>-1</dim>
					<dim>768</dim>
				</port>
				<port id="1" precision="FP32">
					<dim>1</dim>
					<dim>-1</dim>
					<dim>768</dim>
				</port>
			</input>
			<output>
				<port id="2" precision="FP32" names="/model/transformer/h.0/Add_output_0">
					<dim>1</dim>
					<dim>-1</dim>
					<dim>768</dim>
				</port>
			</output>
		</layer>
		<layer id="145" name="Constant_24064" type="Const" version="opset1">
			<data element_type="f32" shape="1, 1, 768" offset="178550024" size="3072" />
			<output>
				<port id="0" precision="FP32">
					<dim>1</dim>
					<dim>1</dim>
					<dim>768</dim>
				</port>
			</output>
		</layer>
		<layer id="146" name="Constant_24058" type="Const" version="opset1">
			<data element_type="f32" shape="1, 1, 3072" offset="178553096" size="12288" />
			<output>
				<port id="0" precision="FP32">
					<dim>1</dim>
					<dim>1</dim>
					<dim>3072</dim>
				</port>
			</output>
		</layer>
		<layer id="147" name="Constant_723" type="Const" version="opset1">
			<data element_type="i64" shape="1" offset="169106464" size="8" />
			<output>
				<port id="0" precision="I64">
					<dim>1</dim>
				</port>
			</output>
		</layer>
		<layer id="148" name="/model/transformer/h.0/ln_2/Div" type="MVN" version="opset6">
			<data eps="9.9999997473787516e-06" normalize_variance="true" eps_mode="INSIDE_SQRT" />
			<input>
				<port id="0" precision="FP32">
					<dim>1</dim>
					<dim>-1</dim>
					<dim>768</dim>
				</port>
				<port id="1" precision="I64">
					<dim>1</dim>
				</port>
			</input>
			<output>
				<port id="2" precision="FP32" names="/model/transformer/h.0/ln_2/Div_output_0">
					<dim>1</dim>
					<dim>-1</dim>
					<dim>768</dim>
				</port>
			</output>
		</layer>
		<layer id="149" name="Constant_24056" type="Const" version="opset1">
			<data element_type="f32" shape="1, 1, 768" offset="178565384" size="3072" />
			<output>
				<port id="0" precision="FP32">
					<dim>1</dim>
					<dim>1</dim>
					<dim>768</dim>
				</port>
			</output>
		</layer>
		<layer id="150" name="/model/transformer/h.0/ln_2/Mul" type="Multiply" version="opset1">
			<data auto_broadcast="numpy" />
			<input>
				<port id="0" precision="FP32">
					<dim>1</dim>
					<dim>-1</dim>
					<dim>768</dim>
				</port>
				<port id="1" precision="FP32">
					<dim>1</dim>
					<dim>1</dim>
					<dim>768</dim>
				</port>
			</input>
			<output>
				<port id="2" precision="FP32" names="/model/transformer/h.0/ln_2/Mul_output_0">
					<dim>1</dim>
					<dim>-1</dim>
					<dim>768</dim>
				</port>
			</output>
		</layer>
		<layer id="151" name="Constant_24057" type="Const" version="opset1">
			<data element_type="f32" shape="1, 1, 768" offset="178568456" size="3072" />
			<output>
				<port id="0" precision="FP32">
					<dim>1</dim>
					<dim>1</dim>
					<dim>768</dim>
				</port>
			</output>
		</layer>
		<layer id="152" name="/model/transformer/h.0/ln_2/Add_1" type="Add" version="opset1">
			<data auto_broadcast="numpy" />
			<input>
				<port id="0" precision="FP32">
					<dim>1</dim>
					<dim>-1</dim>
					<dim>768</dim>
				</port>
				<port id="1" precision="FP32">
					<dim>1</dim>
					<dim>1</dim>
					<dim>768</dim>
				</port>
			</input>
			<output>
				<port id="2" precision="FP32" names="/model/transformer/h.0/ln_2/Add_1_output_0">
					<dim>1</dim>
					<dim>-1</dim>
					<dim>768</dim>
				</port>
			</output>
		</layer>
		<layer id="153" name="Transpose_22951" type="Const" version="opset1">
			<data element_type="f32" shape="3072, 768" offset="178571528" size="9437184" />
			<output>
				<port id="0" precision="FP32">
					<dim>3072</dim>
					<dim>768</dim>
				</port>
			</output>
		</layer>
		<layer id="154" name="/model/transformer/h.0/mlp/c_fc/MatMul" type="MatMul" version="opset1">
			<data transpose_a="false" transpose_b="true" />
			<input>
				<port id="0" precision="FP32">
					<dim>1</dim>
					<dim>-1</dim>
					<dim>768</dim>
				</port>
				<port id="1" precision="FP32">
					<dim>3072</dim>
					<dim>768</dim>
				</port>
			</input>
			<output>
				<port id="2" precision="FP32" names="/model/transformer/h.0/mlp/c_fc/MatMul_output_0">
					<dim>1</dim>
					<dim>-1</dim>
					<dim>3072</dim>
				</port>
			</output>
		</layer>
		<layer id="155" name="/model/transformer/h.0/mlp/c_fc/Add" type="Add" version="opset1">
			<data auto_broadcast="numpy" />
			<input>
				<port id="0" precision="FP32">
					<dim>1</dim>
					<dim>1</dim>
					<dim>3072</dim>
				</port>
				<port id="1" precision="FP32">
					<dim>1</dim>
					<dim>-1</dim>
					<dim>3072</dim>
				</port>
			</input>
			<output>
				<port id="2" precision="FP32" names="/model/transformer/h.0/mlp/c_fc/Add_output_0">
					<dim>1</dim>
					<dim>-1</dim>
					<dim>3072</dim>
				</port>
			</output>
		</layer>
		<layer id="156" name="Constant_24059" type="Const" version="opset1">
			<data element_type="f32" shape="1, 1, 1" offset="188008712" size="4" />
			<output>
				<port id="0" precision="FP32">
					<dim>1</dim>
					<dim>1</dim>
					<dim>1</dim>
				</port>
			</output>
		</layer>
		<layer id="157" name="/model/transformer/h.0/mlp/act/Mul" type="Multiply" version="opset1">
			<data auto_broadcast="numpy" />
			<input>
				<port id="0" precision="FP32">
					<dim>1</dim>
					<dim>-1</dim>
					<dim>3072</dim>
				</port>
				<port id="1" precision="FP32">
					<dim>1</dim>
					<dim>1</dim>
					<dim>1</dim>
				</port>
			</input>
			<output>
				<port id="2" precision="FP32" names="/model/transformer/h.0/mlp/act/Mul_output_0">
					<dim>1</dim>
					<dim>-1</dim>
					<dim>3072</dim>
				</port>
			</output>
		</layer>
		<layer id="158" name="Constant_24060" type="Const" version="opset1">
			<data element_type="f32" shape="1, 1, 1" offset="188008716" size="4" />
			<output>
				<port id="0" precision="FP32">
					<dim>1</dim>
					<dim>1</dim>
					<dim>1</dim>
				</port>
			</output>
		</layer>
		<layer id="159" name="/model/transformer/h.0/mlp/act/Pow" type="Power" version="opset1">
			<data auto_broadcast="numpy" />
			<input>
				<port id="0" precision="FP32">
					<dim>1</dim>
					<dim>-1</dim>
					<dim>3072</dim>
				</port>
				<port id="1" precision="FP32">
					<dim>1</dim>
					<dim>1</dim>
					<dim>1</dim>
				</port>
			</input>
			<output>
				<port id="2" precision="FP32" names="/model/transformer/h.0/mlp/act/Pow_output_0">
					<dim>1</dim>
					<dim>-1</dim>
					<dim>3072</dim>
				</port>
			</output>
		</layer>
		<layer id="160" name="Constant_24061" type="Const" version="opset1">
			<data element_type="f32" shape="1, 1, 1" offset="188008720" size="4" />
			<output>
				<port id="0" precision="FP32">
					<dim>1</dim>
					<dim>1</dim>
					<dim>1</dim>
				</port>
			</output>
		</layer>
		<layer id="161" name="/model/transformer/h.0/mlp/act/Mul_1" type="Multiply" version="opset1">
			<data auto_broadcast="numpy" />
			<input>
				<port id="0" precision="FP32">
					<dim>1</dim>
					<dim>-1</dim>
					<dim>3072</dim>
				</port>
				<port id="1" precision="FP32">
					<dim>1</dim>
					<dim>1</dim>
					<dim>1</dim>
				</port>
			</input>
			<output>
				<port id="2" precision="FP32" names="/model/transformer/h.0/mlp/act/Mul_1_output_0">
					<dim>1</dim>
					<dim>-1</dim>
					<dim>3072</dim>
				</port>
			</output>
		</layer>
		<layer id="162" name="/model/transformer/h.0/mlp/act/Add" type="Add" version="opset1">
			<data auto_broadcast="numpy" />
			<input>
				<port id="0" precision="FP32">
					<dim>1</dim>
					<dim>-1</dim>
					<dim>3072</dim>
				</port>
				<port id="1" precision="FP32">
					<dim>1</dim>
					<dim>-1</dim>
					<dim>3072</dim>
				</port>
			</input>
			<output>
				<port id="2" precision="FP32" names="/model/transformer/h.0/mlp/act/Add_output_0">
					<dim>1</dim>
					<dim>-1</dim>
					<dim>3072</dim>
				</port>
			</output>
		</layer>
		<layer id="163" name="Constant_24062" type="Const" version="opset1">
			<data element_type="f32" shape="1, 1, 1" offset="188008724" size="4" />
			<output>
				<port id="0" precision="FP32">
					<dim>1</dim>
					<dim>1</dim>
					<dim>1</dim>
				</port>
			</output>
		</layer>
		<layer id="164" name="/model/transformer/h.0/mlp/act/Mul_2" type="Multiply" version="opset1">
			<data auto_broadcast="numpy" />
			<input>
				<port id="0" precision="FP32">
					<dim>1</dim>
					<dim>-1</dim>
					<dim>3072</dim>
				</port>
				<port id="1" precision="FP32">
					<dim>1</dim>
					<dim>1</dim>
					<dim>1</dim>
				</port>
			</input>
			<output>
				<port id="2" precision="FP32" names="/model/transformer/h.0/mlp/act/Mul_2_output_0">
					<dim>1</dim>
					<dim>-1</dim>
					<dim>3072</dim>
				</port>
			</output>
		</layer>
		<layer id="165" name="/model/transformer/h.0/mlp/act/Tanh" type="Tanh" version="opset1">
			<input>
				<port id="0" precision="FP32">
					<dim>1</dim>
					<dim>-1</dim>
					<dim>3072</dim>
				</port>
			</input>
			<output>
				<port id="1" precision="FP32" names="/model/transformer/h.0/mlp/act/Tanh_output_0">
					<dim>1</dim>
					<dim>-1</dim>
					<dim>3072</dim>
				</port>
			</output>
		</layer>
		<layer id="166" name="Constant_24063" type="Const" version="opset1">
			<data element_type="f32" shape="1, 1, 1" offset="173831320" size="4" />
			<output>
				<port id="0" precision="FP32">
					<dim>1</dim>
					<dim>1</dim>
					<dim>1</dim>
				</port>
			</output>
		</layer>
		<layer id="167" name="/model/transformer/h.0/mlp/act/Add_1" type="Add" version="opset1">
			<data auto_broadcast="numpy" />
			<input>
				<port id="0" precision="FP32">
					<dim>1</dim>
					<dim>-1</dim>
					<dim>3072</dim>
				</port>
				<port id="1" precision="FP32">
					<dim>1</dim>
					<dim>1</dim>
					<dim>1</dim>
				</port>
			</input>
			<output>
				<port id="2" precision="FP32" names="/model/transformer/h.0/mlp/act/Add_1_output_0">
					<dim>1</dim>
					<dim>-1</dim>
					<dim>3072</dim>
				</port>
			</output>
		</layer>
		<layer id="168" name="/model/transformer/h.0/mlp/act/Mul_3" type="Multiply" version="opset1">
			<data auto_broadcast="numpy" />
			<input>
				<port id="0" precision="FP32">
					<dim>1</dim>
					<dim>-1</dim>
					<dim>3072</dim>
				</port>
				<port id="1" precision="FP32">
					<dim>1</dim>
					<dim>-1</dim>
					<dim>3072</dim>
				</port>
			</input>
			<output>
				<port id="2" precision="FP32" names="/model/transformer/h.0/mlp/act/Mul_3_output_0">
					<dim>1</dim>
					<dim>-1</dim>
					<dim>3072</dim>
				</port>
			</output>
		</layer>
		<layer id="169" name="Transpose_22970" type="Const" version="opset1">
			<data element_type="f32" shape="768, 3072" offset="188008728" size="9437184" />
			<output>
				<port id="0" precision="FP32">
					<dim>768</dim>
					<dim>3072</dim>
				</port>
			</output>
		</layer>
		<layer id="170" name="/model/transformer/h.0/mlp/c_proj/MatMul" type="MatMul" version="opset1">
			<data transpose_a="false" transpose_b="true" />
			<input>
				<port id="0" precision="FP32">
					<dim>1</dim>
					<dim>-1</dim>
					<dim>3072</dim>
				</port>
				<port id="1" precision="FP32">
					<dim>768</dim>
					<dim>3072</dim>
				</port>
			</input>
			<output>
				<port id="2" precision="FP32" names="/model/transformer/h.0/mlp/c_proj/MatMul_output_0">
					<dim>1</dim>
					<dim>-1</dim>
					<dim>768</dim>
				</port>
			</output>
		</layer>
		<layer id="171" name="/model/transformer/h.0/mlp/c_proj/Add" type="Add" version="opset1">
			<data auto_broadcast="numpy" />
			<input>
				<port id="0" precision="FP32">
					<dim>1</dim>
					<dim>1</dim>
					<dim>768</dim>
				</port>
				<port id="1" precision="FP32">
					<dim>1</dim>
					<dim>-1</dim>
					<dim>768</dim>
				</port>
			</input>
			<output>
				<port id="2" precision="FP32" names="/model/transformer/h.0/mlp/c_proj/Add_output_0">
					<dim>1</dim>
					<dim>-1</dim>
					<dim>768</dim>
				</port>
			</output>
		</layer>
		<layer id="172" name="/model/transformer/h.0/Add_1" type="Add" version="opset1">
			<data auto_broadcast="numpy" />
			<input>
				<port id="0" precision="FP32">
					<dim>1</dim>
					<dim>-1</dim>
					<dim>768</dim>
				</port>
				<port id="1" precision="FP32">
					<dim>1</dim>
					<dim>-1</dim>
					<dim>768</dim>
				</port>
			</input>
			<output>
				<port id="2" precision="FP32" names="/model/transformer/h.0/Add_1_output_0">
					<dim>1</dim>
					<dim>-1</dim>
					<dim>768</dim>
				</port>
			</output>
		</layer>
		<layer id="173" name="Constant_754" type="Const" version="opset1">
			<data element_type="i64" shape="1" offset="169106464" size="8" />
			<output>
				<port id="0" precision="I64">
					<dim>1</dim>
				</port>
			</output>
		</layer>
		<layer id="174" name="/model/transformer/h.1/ln_1/Div" type="MVN" version="opset6">
			<data eps="9.9999997473787516e-06" normalize_variance="true" eps_mode="INSIDE_SQRT" />
			<input>
				<port id="0" precision="FP32">
					<dim>1</dim>
					<dim>-1</dim>
					<dim>768</dim>
				</port>
				<port id="1" precision="I64">
					<dim>1</dim>
				</port>
			</input>
			<output>
				<port id="2" precision="FP32" names="/model/transformer/h.1/ln_1/Div_output_0">
					<dim>1</dim>
					<dim>-1</dim>
					<dim>768</dim>
				</port>
			</output>
		</layer>
		<layer id="175" name="Constant_24065" type="Const" version="opset1">
			<data element_type="f32" shape="1, 1, 768" offset="197445912" size="3072" />
			<output>
				<port id="0" precision="FP32">
					<dim>1</dim>
					<dim>1</dim>
					<dim>768</dim>
				</port>
			</output>
		</layer>
		<layer id="176" name="/model/transformer/h.1/ln_1/Mul" type="Multiply" version="opset1">
			<data auto_broadcast="numpy" />
			<input>
				<port id="0" precision="FP32">
					<dim>1</dim>
					<dim>-1</dim>
					<dim>768</dim>
				</port>
				<port id="1" precision="FP32">
					<dim>1</dim>
					<dim>1</dim>
					<dim>768</dim>
				</port>
			</input>
			<output>
				<port id="2" precision="FP32" names="/model/transformer/h.1/ln_1/Mul_output_0">
					<dim>1</dim>
					<dim>-1</dim>
					<dim>768</dim>
				</port>
			</output>
		</layer>
		<layer id="177" name="Constant_24066" type="Const" version="opset1">
			<data element_type="f32" shape="1, 1, 768" offset="197448984" size="3072" />
			<output>
				<port id="0" precision="FP32">
					<dim>1</dim>
					<dim>1</dim>
					<dim>768</dim>
				</port>
			</output>
		</layer>
		<layer id="178" name="/model/transformer/h.1/ln_1/Add_1" type="Add" version="opset1">
			<data auto_broadcast="numpy" />
			<input>
				<port id="0" precision="FP32">
					<dim>1</dim>
					<dim>-1</dim>
					<dim>768</dim>
				</port>
				<port id="1" precision="FP32">
					<dim>1</dim>
					<dim>1</dim>
					<dim>768</dim>
				</port>
			</input>
			<output>
				<port id="2" precision="FP32" names="/model/transformer/h.1/ln_1/Add_1_output_0">
					<dim>1</dim>
					<dim>-1</dim>
					<dim>768</dim>
				</port>
			</output>
		</layer>
		<layer id="179" name="Transpose_22988" type="Const" version="opset1">
			<data element_type="f32" shape="768, 768" offset="197452056" size="2359296" />
			<output>
				<port id="0" precision="FP32">
					<dim>768</dim>
					<dim>768</dim>
				</port>
			</output>
		</layer>
		<layer id="180" name="/model/transformer/h.1/attn/attention/k_proj/MatMul" type="MatMul" version="opset1">
			<data transpose_a="false" transpose_b="true" />
			<input>
				<port id="0" precision="FP32">
					<dim>1</dim>
					<dim>-1</dim>
					<dim>768</dim>
				</port>
				<port id="1" precision="FP32">
					<dim>768</dim>
					<dim>768</dim>
				</port>
			</input>
			<output>
				<port id="2" precision="FP32" names="/model/transformer/h.1/attn/attention/k_proj/MatMul_output_0">
					<dim>1</dim>
					<dim>-1</dim>
					<dim>768</dim>
				</port>
			</output>
		</layer>
		<layer id="181" name="/model/transformer/h.1/attn/attention/Concat_1" type="Const" version="opset1">
			<data element_type="i64" shape="4" offset="171471912" size="32" />
			<output>
				<port id="0" precision="I64">
					<dim>4</dim>
				</port>
			</output>
		</layer>
		<layer id="182" name="/model/transformer/h.1/attn/attention/Reshape_1" type="Reshape" version="opset1">
			<data special_zero="true" />
			<input>
				<port id="0" precision="FP32">
					<dim>1</dim>
					<dim>-1</dim>
					<dim>768</dim>
				</port>
				<port id="1" precision="I64">
					<dim>4</dim>
				</port>
			</input>
			<output>
				<port id="2" precision="FP32" names="/model/transformer/h.1/attn/attention/Reshape_1_output_0">
					<dim>1</dim>
					<dim>-1</dim>
					<dim>12</dim>
					<dim>64</dim>
				</port>
			</output>
		</layer>
		<layer id="183" name="Constant_808" type="Const" version="opset1">
			<data element_type="i64" shape="4" offset="171471944" size="32" />
			<output>
				<port id="0" precision="I64">
					<dim>4</dim>
				</port>
			</output>
		</layer>
		<layer id="184" name="/model/transformer/h.1/attn/attention/Transpose_1" type="Transpose" version="opset1">
			<input>
				<port id="0" precision="FP32">
					<dim>1</dim>
					<dim>-1</dim>
					<dim>12</dim>
					<dim>64</dim>
				</port>
				<port id="1" precision="I64">
					<dim>4</dim>
				</port>
			</input>
			<output>
				<port id="2" precision="FP32" names="/model/transformer/h.1/attn/attention/Cast_1_output_0,/model/transformer/h.1/attn/attention/Transpose_1_output_0">
					<dim>1</dim>
					<dim>12</dim>
					<dim>-1</dim>
					<dim>64</dim>
				</port>
			</output>
		</layer>
		<layer id="185" name="ShapeOf_25442" type="ShapeOf" version="opset3">
			<data output_type="i64" />
			<input>
				<port id="0" precision="FP32">
					<dim>1</dim>
					<dim>12</dim>
					<dim>-1</dim>
					<dim>64</dim>
				</port>
			</input>
			<output>
				<port id="1" precision="I64">
					<dim>4</dim>
				</port>
			</output>
		</layer>
		<layer id="186" name="Constant_25443" type="Const" version="opset1">
			<data element_type="i64" shape="1" offset="171471976" size="8" />
			<output>
				<port id="0" precision="I64">
					<dim>1</dim>
				</port>
			</output>
		</layer>
		<layer id="187" name="Constant_25444" type="Const" version="opset1">
			<data element_type="i64" shape="" offset="162814992" size="8" />
			<output>
				<port id="0" precision="I64" />
			</output>
		</layer>
		<layer id="188" name="Gather_25445" type="Gather" version="opset8">
			<data batch_dims="0" />
			<input>
				<port id="0" precision="I64">
					<dim>4</dim>
				</port>
				<port id="1" precision="I64">
					<dim>1</dim>
				</port>
				<port id="2" precision="I64" />
			</input>
			<output>
				<port id="3" precision="I64" names="/model/transformer/h.1/attn/attention/Slice_1_output_0,/model/transformer/h.1/attn/attention/Slice_output_0,/model/transformer/h.1/attn/attention/Unsqueeze_7_output_0,/model/transformer/h.1/attn/attention/Unsqueeze_8_output_0">
					<dim>1</dim>
				</port>
			</output>
		</layer>
		<layer id="189" name="/model/transformer/h.1/attn/attention/Sub" type="Subtract" version="opset1">
			<data auto_broadcast="numpy" />
			<input>
				<port id="0" precision="I64">
					<dim>1</dim>
				</port>
				<port id="1" precision="I64">
					<dim>1</dim>
				</port>
			</input>
			<output>
				<port id="2" precision="I64" names="/model/transformer/h.1/attn/attention/Sub_output_0,/model/transformer/h.1/attn/attention/Unsqueeze_6_output_0">
					<dim>1</dim>
				</port>
			</output>
		</layer>
		<layer id="190" name="/model/transformer/h.1/attn/attention/Constant_21" type="Const" version="opset1">
			<data element_type="i64" shape="1" offset="162814992" size="8" />
			<output>
				<port id="0" precision="I64" names="/model/transformer/h.1/attn/attention/Constant_21_output_0">
					<dim>1</dim>
				</port>
			</output>
		</layer>
		<layer id="191" name="Concat_21832" type="Concat" version="opset1">
			<data axis="0" />
			<input>
				<port id="0" precision="I64">
					<dim>1</dim>
				</port>
				<port id="1" precision="I64">
					<dim>1</dim>
				</port>
			</input>
			<output>
				<port id="2" precision="I64">
					<dim>2</dim>
				</port>
			</output>
		</layer>
		<layer id="192" name="Constant_22650" type="Const" version="opset1">
			<data element_type="i32" shape="1" offset="171471984" size="4" />
			<output>
				<port id="0" precision="I32">
					<dim>1</dim>
				</port>
			</output>
		</layer>
		<layer id="193" name="Concat_21833" type="Broadcast" version="opset3">
			<data mode="numpy" />
			<input>
				<port id="0" precision="I64">
					<dim>1</dim>
				</port>
				<port id="1" precision="I32">
					<dim>1</dim>
				</port>
			</input>
			<output>
				<port id="2" precision="I64">
					<dim>2</dim>
				</port>
			</output>
		</layer>
		<layer id="194" name="Constant_21837" type="Const" version="opset1">
			<data element_type="i64" shape="2" offset="171471988" size="16" />
			<output>
				<port id="0" precision="I64">
					<dim>2</dim>
				</port>
			</output>
		</layer>
		<layer id="195" name="Constant_21836" type="Const" version="opset1">
			<data element_type="i64" shape="2" offset="171472004" size="16" />
			<output>
				<port id="0" precision="I64">
					<dim>2</dim>
				</port>
			</output>
		</layer>
		<layer id="196" name="/model/transformer/h.1/attn/attention/Slice_3" type="Slice" version="opset8">
			<input>
				<port id="0" precision="BOOL">
					<dim>1</dim>
					<dim>1</dim>
					<dim>2048</dim>
					<dim>2048</dim>
				</port>
				<port id="1" precision="I64">
					<dim>2</dim>
				</port>
				<port id="2" precision="I64">
					<dim>2</dim>
				</port>
				<port id="3" precision="I64">
					<dim>2</dim>
				</port>
				<port id="4" precision="I64">
					<dim>2</dim>
				</port>
			</input>
			<output>
				<port id="5" precision="BOOL" names="/model/transformer/h.1/attn/attention/Slice_3_output_0">
					<dim>1</dim>
					<dim>1</dim>
					<dim>-1</dim>
					<dim>-1</dim>
				</port>
			</output>
		</layer>
		<layer id="197" name="Transpose_22991" type="Const" version="opset1">
			<data element_type="f32" shape="768, 768" offset="199811352" size="2359296" />
			<output>
				<port id="0" precision="FP32">
					<dim>768</dim>
					<dim>768</dim>
				</port>
			</output>
		</layer>
		<layer id="198" name="/model/transformer/h.1/attn/attention/q_proj/MatMul" type="MatMul" version="opset1">
			<data transpose_a="false" transpose_b="true" />
			<input>
				<port id="0" precision="FP32">
					<dim>1</dim>
					<dim>-1</dim>
					<dim>768</dim>
				</port>
				<port id="1" precision="FP32">
					<dim>768</dim>
					<dim>768</dim>
				</port>
			</input>
			<output>
				<port id="2" precision="FP32" names="/model/transformer/h.1/attn/attention/q_proj/MatMul_output_0">
					<dim>1</dim>
					<dim>-1</dim>
					<dim>768</dim>
				</port>
			</output>
		</layer>
		<layer id="199" name="/model/transformer/h.1/attn/attention/Concat" type="Const" version="opset1">
			<data element_type="i64" shape="4" offset="171471912" size="32" />
			<output>
				<port id="0" precision="I64">
					<dim>4</dim>
				</port>
			</output>
		</layer>
		<layer id="200" name="/model/transformer/h.1/attn/attention/Reshape" type="Reshape" version="opset1">
			<data special_zero="true" />
			<input>
				<port id="0" precision="FP32">
					<dim>1</dim>
					<dim>-1</dim>
					<dim>768</dim>
				</port>
				<port id="1" precision="I64">
					<dim>4</dim>
				</port>
			</input>
			<output>
				<port id="2" precision="FP32" names="/model/transformer/h.1/attn/attention/Reshape_output_0">
					<dim>1</dim>
					<dim>-1</dim>
					<dim>12</dim>
					<dim>64</dim>
				</port>
			</output>
		</layer>
		<layer id="201" name="Constant_788" type="Const" version="opset1">
			<data element_type="i64" shape="4" offset="171471944" size="32" />
			<output>
				<port id="0" precision="I64">
					<dim>4</dim>
				</port>
			</output>
		</layer>
		<layer id="202" name="/model/transformer/h.1/attn/attention/Transpose" type="Transpose" version="opset1">
			<input>
				<port id="0" precision="FP32">
					<dim>1</dim>
					<dim>-1</dim>
					<dim>12</dim>
					<dim>64</dim>
				</port>
				<port id="1" precision="I64">
					<dim>4</dim>
				</port>
			</input>
			<output>
				<port id="2" precision="FP32" names="/model/transformer/h.1/attn/attention/Cast_output_0,/model/transformer/h.1/attn/attention/Transpose_output_0">
					<dim>1</dim>
					<dim>12</dim>
					<dim>-1</dim>
					<dim>64</dim>
				</port>
			</output>
		</layer>
		<layer id="203" name="/model/transformer/h.1/attn/attention/MatMul" type="MatMul" version="opset1">
			<data transpose_a="false" transpose_b="true" />
			<input>
				<port id="0" precision="FP32">
					<dim>1</dim>
					<dim>12</dim>
					<dim>-1</dim>
					<dim>64</dim>
				</port>
				<port id="1" precision="FP32">
					<dim>1</dim>
					<dim>12</dim>
					<dim>-1</dim>
					<dim>64</dim>
				</port>
			</input>
			<output>
				<port id="2" precision="FP32" names="/model/transformer/h.1/attn/attention/MatMul_output_0">
					<dim>1</dim>
					<dim>12</dim>
					<dim>-1</dim>
					<dim>-1</dim>
				</port>
			</output>
		</layer>
		<layer id="204" name="/model/transformer/h.1/attn/attention/Constant_23" type="Const" version="opset1">
			<data element_type="f32" shape="" offset="173831316" size="4" />
			<output>
				<port id="0" precision="FP32" names="/model/transformer/h.1/attn/attention/Constant_23_output_0" />
			</output>
		</layer>
		<layer id="205" name="/model/transformer/h.1/attn/attention/Where" type="Select" version="opset1">
			<data auto_broadcast="numpy" />
			<input>
				<port id="0" precision="BOOL">
					<dim>1</dim>
					<dim>1</dim>
					<dim>-1</dim>
					<dim>-1</dim>
				</port>
				<port id="1" precision="FP32">
					<dim>1</dim>
					<dim>12</dim>
					<dim>-1</dim>
					<dim>-1</dim>
				</port>
				<port id="2" precision="FP32" />
			</input>
			<output>
				<port id="3" precision="FP32" names="/model/transformer/h.1/attn/attention/Where_output_0">
					<dim>1</dim>
					<dim>12</dim>
					<dim>-1</dim>
					<dim>-1</dim>
				</port>
			</output>
		</layer>
		<layer id="206" name="/model/transformer/h.1/attn/attention/Add" type="Add" version="opset1">
			<data auto_broadcast="numpy" />
			<input>
				<port id="0" precision="FP32">
					<dim>1</dim>
					<dim>12</dim>
					<dim>-1</dim>
					<dim>-1</dim>
				</port>
				<port id="1" precision="FP32">
					<dim>1</dim>
					<dim>1</dim>
					<dim>-1</dim>
					<dim>-1</dim>
				</port>
			</input>
			<output>
				<port id="2" precision="FP32" names="/model/transformer/h.1/attn/attention/Add_output_0">
					<dim>1</dim>
					<dim>12</dim>
					<dim>-1</dim>
					<dim>-1</dim>
				</port>
			</output>
		</layer>
		<layer id="207" name="/model/transformer/h.1/attn/attention/Softmax" type="SoftMax" version="opset8">
			<data axis="3" />
			<input>
				<port id="0" precision="FP32">
					<dim>1</dim>
					<dim>12</dim>
					<dim>-1</dim>
					<dim>-1</dim>
				</port>
			</input>
			<output>
				<port id="1" precision="FP32" names="/model/transformer/h.1/attn/attention/Cast_2_output_0,/model/transformer/h.1/attn/attention/Softmax_output_0">
					<dim>1</dim>
					<dim>12</dim>
					<dim>-1</dim>
					<dim>-1</dim>
				</port>
			</output>
		</layer>
		<layer id="208" name="Transpose_22996" type="Const" version="opset1">
			<data element_type="f32" shape="768, 768" offset="202170648" size="2359296" />
			<output>
				<port id="0" precision="FP32">
					<dim>768</dim>
					<dim>768</dim>
				</port>
			</output>
		</layer>
		<layer id="209" name="/model/transformer/h.1/attn/attention/v_proj/MatMul" type="MatMul" version="opset1">
			<data transpose_a="false" transpose_b="true" />
			<input>
				<port id="0" precision="FP32">
					<dim>1</dim>
					<dim>-1</dim>
					<dim>768</dim>
				</port>
				<port id="1" precision="FP32">
					<dim>768</dim>
					<dim>768</dim>
				</port>
			</input>
			<output>
				<port id="2" precision="FP32" names="/model/transformer/h.1/attn/attention/v_proj/MatMul_output_0">
					<dim>1</dim>
					<dim>-1</dim>
					<dim>768</dim>
				</port>
			</output>
		</layer>
		<layer id="210" name="/model/transformer/h.1/attn/attention/Concat_2" type="Const" version="opset1">
			<data element_type="i64" shape="4" offset="171471912" size="32" />
			<output>
				<port id="0" precision="I64">
					<dim>4</dim>
				</port>
			</output>
		</layer>
		<layer id="211" name="/model/transformer/h.1/attn/attention/Reshape_2" type="Reshape" version="opset1">
			<data special_zero="true" />
			<input>
				<port id="0" precision="FP32">
					<dim>1</dim>
					<dim>-1</dim>
					<dim>768</dim>
				</port>
				<port id="1" precision="I64">
					<dim>4</dim>
				</port>
			</input>
			<output>
				<port id="2" precision="FP32" names="/model/transformer/h.1/attn/attention/Reshape_2_output_0">
					<dim>1</dim>
					<dim>-1</dim>
					<dim>12</dim>
					<dim>64</dim>
				</port>
			</output>
		</layer>
		<layer id="212" name="Constant_828" type="Const" version="opset1">
			<data element_type="i64" shape="4" offset="171471944" size="32" />
			<output>
				<port id="0" precision="I64">
					<dim>4</dim>
				</port>
			</output>
		</layer>
		<layer id="213" name="/model/transformer/h.1/attn/attention/Transpose_2" type="Transpose" version="opset1">
			<input>
				<port id="0" precision="FP32">
					<dim>1</dim>
					<dim>-1</dim>
					<dim>12</dim>
					<dim>64</dim>
				</port>
				<port id="1" precision="I64">
					<dim>4</dim>
				</port>
			</input>
			<output>
				<port id="2" precision="FP32" names="/model/transformer/h.1/attn/attention/Transpose_2_output_0">
					<dim>1</dim>
					<dim>12</dim>
					<dim>-1</dim>
					<dim>64</dim>
				</port>
			</output>
		</layer>
		<layer id="214" name="/model/transformer/h.1/attn/attention/MatMul_1" type="MatMul" version="opset1">
			<data transpose_a="false" transpose_b="false" />
			<input>
				<port id="0" precision="FP32">
					<dim>1</dim>
					<dim>12</dim>
					<dim>-1</dim>
					<dim>-1</dim>
				</port>
				<port id="1" precision="FP32">
					<dim>1</dim>
					<dim>12</dim>
					<dim>-1</dim>
					<dim>64</dim>
				</port>
			</input>
			<output>
				<port id="2" precision="FP32" names="/model/transformer/h.1/attn/attention/MatMul_1_output_0">
					<dim>1</dim>
					<dim>12</dim>
					<dim>-1</dim>
					<dim>64</dim>
				</port>
			</output>
		</layer>
		<layer id="215" name="Constant_958" type="Const" version="opset1">
			<data element_type="i64" shape="4" offset="171471944" size="32" />
			<output>
				<port id="0" precision="I64">
					<dim>4</dim>
				</port>
			</output>
		</layer>
		<layer id="216" name="/model/transformer/h.1/attn/attention/Transpose_4" type="Transpose" version="opset1">
			<input>
				<port id="0" precision="FP32">
					<dim>1</dim>
					<dim>12</dim>
					<dim>-1</dim>
					<dim>64</dim>
				</port>
				<port id="1" precision="I64">
					<dim>4</dim>
				</port>
			</input>
			<output>
				<port id="2" precision="FP32" names="/model/transformer/h.1/attn/attention/Transpose_4_output_0">
					<dim>1</dim>
					<dim>-1</dim>
					<dim>12</dim>
					<dim>64</dim>
				</port>
			</output>
		</layer>
		<layer id="217" name="/model/transformer/h.1/attn/attention/Concat_3" type="Const" version="opset1">
			<data element_type="i64" shape="3" offset="176190704" size="24" />
			<output>
				<port id="0" precision="I64">
					<dim>3</dim>
				</port>
			</output>
		</layer>
		<layer id="218" name="/model/transformer/h.1/attn/attention/Reshape_3" type="Reshape" version="opset1">
			<data special_zero="true" />
			<input>
				<port id="0" precision="FP32">
					<dim>1</dim>
					<dim>-1</dim>
					<dim>12</dim>
					<dim>64</dim>
				</port>
				<port id="1" precision="I64">
					<dim>3</dim>
				</port>
			</input>
			<output>
				<port id="2" precision="FP32" names="/model/transformer/h.1/attn/attention/Reshape_3_output_0">
					<dim>1</dim>
					<dim>-1</dim>
					<dim>768</dim>
				</port>
			</output>
		</layer>
		<layer id="219" name="Transpose_22999" type="Const" version="opset1">
			<data element_type="f32" shape="768, 768" offset="204529944" size="2359296" />
			<output>
				<port id="0" precision="FP32">
					<dim>768</dim>
					<dim>768</dim>
				</port>
			</output>
		</layer>
		<layer id="220" name="/model/transformer/h.1/attn/attention/out_proj/MatMul" type="MatMul" version="opset1">
			<data transpose_a="false" transpose_b="true" />
			<input>
				<port id="0" precision="FP32">
					<dim>1</dim>
					<dim>-1</dim>
					<dim>768</dim>
				</port>
				<port id="1" precision="FP32">
					<dim>768</dim>
					<dim>768</dim>
				</port>
			</input>
			<output>
				<port id="2" precision="FP32" names="/model/transformer/h.1/attn/attention/out_proj/MatMul_output_0">
					<dim>1</dim>
					<dim>-1</dim>
					<dim>768</dim>
				</port>
			</output>
		</layer>
		<layer id="221" name="/model/transformer/h.1/attn/attention/out_proj/Add" type="Add" version="opset1">
			<data auto_broadcast="numpy" />
			<input>
				<port id="0" precision="FP32">
					<dim>1</dim>
					<dim>1</dim>
					<dim>768</dim>
				</port>
				<port id="1" precision="FP32">
					<dim>1</dim>
					<dim>-1</dim>
					<dim>768</dim>
				</port>
			</input>
			<output>
				<port id="2" precision="FP32" names="/model/transformer/h.1/attn/attention/out_proj/Add_output_0">
					<dim>1</dim>
					<dim>-1</dim>
					<dim>768</dim>
				</port>
			</output>
		</layer>
		<layer id="222" name="/model/transformer/h.1/Add" type="Add" version="opset1">
			<data auto_broadcast="numpy" />
			<input>
				<port id="0" precision="FP32">
					<dim>1</dim>
					<dim>-1</dim>
					<dim>768</dim>
				</port>
				<port id="1" precision="FP32">
					<dim>1</dim>
					<dim>-1</dim>
					<dim>768</dim>
				</port>
			</input>
			<output>
				<port id="2" precision="FP32" names="/model/transformer/h.1/Add_output_0">
					<dim>1</dim>
					<dim>-1</dim>
					<dim>768</dim>
				</port>
			</output>
		</layer>
		<layer id="223" name="Constant_24076" type="Const" version="opset1">
			<data element_type="f32" shape="1, 1, 768" offset="206889240" size="3072" />
			<output>
				<port id="0" precision="FP32">
					<dim>1</dim>
					<dim>1</dim>
					<dim>768</dim>
				</port>
			</output>
		</layer>
		<layer id="224" name="Constant_24070" type="Const" version="opset1">
			<data element_type="f32" shape="1, 1, 3072" offset="206892312" size="12288" />
			<output>
				<port id="0" precision="FP32">
					<dim>1</dim>
					<dim>1</dim>
					<dim>3072</dim>
				</port>
			</output>
		</layer>
		<layer id="225" name="Constant_980" type="Const" version="opset1">
			<data element_type="i64" shape="1" offset="169106464" size="8" />
			<output>
				<port id="0" precision="I64">
					<dim>1</dim>
				</port>
			</output>
		</layer>
		<layer id="226" name="/model/transformer/h.1/ln_2/Div" type="MVN" version="opset6">
			<data eps="9.9999997473787516e-06" normalize_variance="true" eps_mode="INSIDE_SQRT" />
			<input>
				<port id="0" precision="FP32">
					<dim>1</dim>
					<dim>-1</dim>
					<dim>768</dim>
				</port>
				<port id="1" precision="I64">
					<dim>1</dim>
				</port>
			</input>
			<output>
				<port id="2" precision="FP32" names="/model/transformer/h.1/ln_2/Div_output_0">
					<dim>1</dim>
					<dim>-1</dim>
					<dim>768</dim>
				</port>
			</output>
		</layer>
		<layer id="227" name="Constant_24068" type="Const" version="opset1">
			<data element_type="f32" shape="1, 1, 768" offset="206904600" size="3072" />
			<output>
				<port id="0" precision="FP32">
					<dim>1</dim>
					<dim>1</dim>
					<dim>768</dim>
				</port>
			</output>
		</layer>
		<layer id="228" name="/model/transformer/h.1/ln_2/Mul" type="Multiply" version="opset1">
			<data auto_broadcast="numpy" />
			<input>
				<port id="0" precision="FP32">
					<dim>1</dim>
					<dim>-1</dim>
					<dim>768</dim>
				</port>
				<port id="1" precision="FP32">
					<dim>1</dim>
					<dim>1</dim>
					<dim>768</dim>
				</port>
			</input>
			<output>
				<port id="2" precision="FP32" names="/model/transformer/h.1/ln_2/Mul_output_0">
					<dim>1</dim>
					<dim>-1</dim>
					<dim>768</dim>
				</port>
			</output>
		</layer>
		<layer id="229" name="Constant_24069" type="Const" version="opset1">
			<data element_type="f32" shape="1, 1, 768" offset="206907672" size="3072" />
			<output>
				<port id="0" precision="FP32">
					<dim>1</dim>
					<dim>1</dim>
					<dim>768</dim>
				</port>
			</output>
		</layer>
		<layer id="230" name="/model/transformer/h.1/ln_2/Add_1" type="Add" version="opset1">
			<data auto_broadcast="numpy" />
			<input>
				<port id="0" precision="FP32">
					<dim>1</dim>
					<dim>-1</dim>
					<dim>768</dim>
				</port>
				<port id="1" precision="FP32">
					<dim>1</dim>
					<dim>1</dim>
					<dim>768</dim>
				</port>
			</input>
			<output>
				<port id="2" precision="FP32" names="/model/transformer/h.1/ln_2/Add_1_output_0">
					<dim>1</dim>
					<dim>-1</dim>
					<dim>768</dim>
				</port>
			</output>
		</layer>
		<layer id="231" name="Transpose_23017" type="Const" version="opset1">
			<data element_type="f32" shape="3072, 768" offset="206910744" size="9437184" />
			<output>
				<port id="0" precision="FP32">
					<dim>3072</dim>
					<dim>768</dim>
				</port>
			</output>
		</layer>
		<layer id="232" name="/model/transformer/h.1/mlp/c_fc/MatMul" type="MatMul" version="opset1">
			<data transpose_a="false" transpose_b="true" />
			<input>
				<port id="0" precision="FP32">
					<dim>1</dim>
					<dim>-1</dim>
					<dim>768</dim>
				</port>
				<port id="1" precision="FP32">
					<dim>3072</dim>
					<dim>768</dim>
				</port>
			</input>
			<output>
				<port id="2" precision="FP32" names="/model/transformer/h.1/mlp/c_fc/MatMul_output_0">
					<dim>1</dim>
					<dim>-1</dim>
					<dim>3072</dim>
				</port>
			</output>
		</layer>
		<layer id="233" name="/model/transformer/h.1/mlp/c_fc/Add" type="Add" version="opset1">
			<data auto_broadcast="numpy" />
			<input>
				<port id="0" precision="FP32">
					<dim>1</dim>
					<dim>1</dim>
					<dim>3072</dim>
				</port>
				<port id="1" precision="FP32">
					<dim>1</dim>
					<dim>-1</dim>
					<dim>3072</dim>
				</port>
			</input>
			<output>
				<port id="2" precision="FP32" names="/model/transformer/h.1/mlp/c_fc/Add_output_0">
					<dim>1</dim>
					<dim>-1</dim>
					<dim>3072</dim>
				</port>
			</output>
		</layer>
		<layer id="234" name="Constant_24071" type="Const" version="opset1">
			<data element_type="f32" shape="1, 1, 1" offset="188008712" size="4" />
			<output>
				<port id="0" precision="FP32">
					<dim>1</dim>
					<dim>1</dim>
					<dim>1</dim>
				</port>
			</output>
		</layer>
		<layer id="235" name="/model/transformer/h.1/mlp/act/Mul" type="Multiply" version="opset1">
			<data auto_broadcast="numpy" />
			<input>
				<port id="0" precision="FP32">
					<dim>1</dim>
					<dim>-1</dim>
					<dim>3072</dim>
				</port>
				<port id="1" precision="FP32">
					<dim>1</dim>
					<dim>1</dim>
					<dim>1</dim>
				</port>
			</input>
			<output>
				<port id="2" precision="FP32" names="/model/transformer/h.1/mlp/act/Mul_output_0">
					<dim>1</dim>
					<dim>-1</dim>
					<dim>3072</dim>
				</port>
			</output>
		</layer>
		<layer id="236" name="Constant_24072" type="Const" version="opset1">
			<data element_type="f32" shape="1, 1, 1" offset="188008716" size="4" />
			<output>
				<port id="0" precision="FP32">
					<dim>1</dim>
					<dim>1</dim>
					<dim>1</dim>
				</port>
			</output>
		</layer>
		<layer id="237" name="/model/transformer/h.1/mlp/act/Pow" type="Power" version="opset1">
			<data auto_broadcast="numpy" />
			<input>
				<port id="0" precision="FP32">
					<dim>1</dim>
					<dim>-1</dim>
					<dim>3072</dim>
				</port>
				<port id="1" precision="FP32">
					<dim>1</dim>
					<dim>1</dim>
					<dim>1</dim>
				</port>
			</input>
			<output>
				<port id="2" precision="FP32" names="/model/transformer/h.1/mlp/act/Pow_output_0">
					<dim>1</dim>
					<dim>-1</dim>
					<dim>3072</dim>
				</port>
			</output>
		</layer>
		<layer id="238" name="Constant_24073" type="Const" version="opset1">
			<data element_type="f32" shape="1, 1, 1" offset="188008720" size="4" />
			<output>
				<port id="0" precision="FP32">
					<dim>1</dim>
					<dim>1</dim>
					<dim>1</dim>
				</port>
			</output>
		</layer>
		<layer id="239" name="/model/transformer/h.1/mlp/act/Mul_1" type="Multiply" version="opset1">
			<data auto_broadcast="numpy" />
			<input>
				<port id="0" precision="FP32">
					<dim>1</dim>
					<dim>-1</dim>
					<dim>3072</dim>
				</port>
				<port id="1" precision="FP32">
					<dim>1</dim>
					<dim>1</dim>
					<dim>1</dim>
				</port>
			</input>
			<output>
				<port id="2" precision="FP32" names="/model/transformer/h.1/mlp/act/Mul_1_output_0">
					<dim>1</dim>
					<dim>-1</dim>
					<dim>3072</dim>
				</port>
			</output>
		</layer>
		<layer id="240" name="/model/transformer/h.1/mlp/act/Add" type="Add" version="opset1">
			<data auto_broadcast="numpy" />
			<input>
				<port id="0" precision="FP32">
					<dim>1</dim>
					<dim>-1</dim>
					<dim>3072</dim>
				</port>
				<port id="1" precision="FP32">
					<dim>1</dim>
					<dim>-1</dim>
					<dim>3072</dim>
				</port>
			</input>
			<output>
				<port id="2" precision="FP32" names="/model/transformer/h.1/mlp/act/Add_output_0">
					<dim>1</dim>
					<dim>-1</dim>
					<dim>3072</dim>
				</port>
			</output>
		</layer>
		<layer id="241" name="Constant_24074" type="Const" version="opset1">
			<data element_type="f32" shape="1, 1, 1" offset="188008724" size="4" />
			<output>
				<port id="0" precision="FP32">
					<dim>1</dim>
					<dim>1</dim>
					<dim>1</dim>
				</port>
			</output>
		</layer>
		<layer id="242" name="/model/transformer/h.1/mlp/act/Mul_2" type="Multiply" version="opset1">
			<data auto_broadcast="numpy" />
			<input>
				<port id="0" precision="FP32">
					<dim>1</dim>
					<dim>-1</dim>
					<dim>3072</dim>
				</port>
				<port id="1" precision="FP32">
					<dim>1</dim>
					<dim>1</dim>
					<dim>1</dim>
				</port>
			</input>
			<output>
				<port id="2" precision="FP32" names="/model/transformer/h.1/mlp/act/Mul_2_output_0">
					<dim>1</dim>
					<dim>-1</dim>
					<dim>3072</dim>
				</port>
			</output>
		</layer>
		<layer id="243" name="/model/transformer/h.1/mlp/act/Tanh" type="Tanh" version="opset1">
			<input>
				<port id="0" precision="FP32">
					<dim>1</dim>
					<dim>-1</dim>
					<dim>3072</dim>
				</port>
			</input>
			<output>
				<port id="1" precision="FP32" names="/model/transformer/h.1/mlp/act/Tanh_output_0">
					<dim>1</dim>
					<dim>-1</dim>
					<dim>3072</dim>
				</port>
			</output>
		</layer>
		<layer id="244" name="Constant_24075" type="Const" version="opset1">
			<data element_type="f32" shape="1, 1, 1" offset="173831320" size="4" />
			<output>
				<port id="0" precision="FP32">
					<dim>1</dim>
					<dim>1</dim>
					<dim>1</dim>
				</port>
			</output>
		</layer>
		<layer id="245" name="/model/transformer/h.1/mlp/act/Add_1" type="Add" version="opset1">
			<data auto_broadcast="numpy" />
			<input>
				<port id="0" precision="FP32">
					<dim>1</dim>
					<dim>-1</dim>
					<dim>3072</dim>
				</port>
				<port id="1" precision="FP32">
					<dim>1</dim>
					<dim>1</dim>
					<dim>1</dim>
				</port>
			</input>
			<output>
				<port id="2" precision="FP32" names="/model/transformer/h.1/mlp/act/Add_1_output_0">
					<dim>1</dim>
					<dim>-1</dim>
					<dim>3072</dim>
				</port>
			</output>
		</layer>
		<layer id="246" name="/model/transformer/h.1/mlp/act/Mul_3" type="Multiply" version="opset1">
			<data auto_broadcast="numpy" />
			<input>
				<port id="0" precision="FP32">
					<dim>1</dim>
					<dim>-1</dim>
					<dim>3072</dim>
				</port>
				<port id="1" precision="FP32">
					<dim>1</dim>
					<dim>-1</dim>
					<dim>3072</dim>
				</port>
			</input>
			<output>
				<port id="2" precision="FP32" names="/model/transformer/h.1/mlp/act/Mul_3_output_0">
					<dim>1</dim>
					<dim>-1</dim>
					<dim>3072</dim>
				</port>
			</output>
		</layer>
		<layer id="247" name="Transpose_23036" type="Const" version="opset1">
			<data element_type="f32" shape="768, 3072" offset="216347928" size="9437184" />
			<output>
				<port id="0" precision="FP32">
					<dim>768</dim>
					<dim>3072</dim>
				</port>
			</output>
		</layer>
		<layer id="248" name="/model/transformer/h.1/mlp/c_proj/MatMul" type="MatMul" version="opset1">
			<data transpose_a="false" transpose_b="true" />
			<input>
				<port id="0" precision="FP32">
					<dim>1</dim>
					<dim>-1</dim>
					<dim>3072</dim>
				</port>
				<port id="1" precision="FP32">
					<dim>768</dim>
					<dim>3072</dim>
				</port>
			</input>
			<output>
				<port id="2" precision="FP32" names="/model/transformer/h.1/mlp/c_proj/MatMul_output_0">
					<dim>1</dim>
					<dim>-1</dim>
					<dim>768</dim>
				</port>
			</output>
		</layer>
		<layer id="249" name="/model/transformer/h.1/mlp/c_proj/Add" type="Add" version="opset1">
			<data auto_broadcast="numpy" />
			<input>
				<port id="0" precision="FP32">
					<dim>1</dim>
					<dim>1</dim>
					<dim>768</dim>
				</port>
				<port id="1" precision="FP32">
					<dim>1</dim>
					<dim>-1</dim>
					<dim>768</dim>
				</port>
			</input>
			<output>
				<port id="2" precision="FP32" names="/model/transformer/h.1/mlp/c_proj/Add_output_0">
					<dim>1</dim>
					<dim>-1</dim>
					<dim>768</dim>
				</port>
			</output>
		</layer>
		<layer id="250" name="/model/transformer/h.1/Add_1" type="Add" version="opset1">
			<data auto_broadcast="numpy" />
			<input>
				<port id="0" precision="FP32">
					<dim>1</dim>
					<dim>-1</dim>
					<dim>768</dim>
				</port>
				<port id="1" precision="FP32">
					<dim>1</dim>
					<dim>-1</dim>
					<dim>768</dim>
				</port>
			</input>
			<output>
				<port id="2" precision="FP32" names="/model/transformer/h.1/Add_1_output_0">
					<dim>1</dim>
					<dim>-1</dim>
					<dim>768</dim>
				</port>
			</output>
		</layer>
		<layer id="251" name="Constant_1011" type="Const" version="opset1">
			<data element_type="i64" shape="1" offset="169106464" size="8" />
			<output>
				<port id="0" precision="I64">
					<dim>1</dim>
				</port>
			</output>
		</layer>
		<layer id="252" name="/model/transformer/h.2/ln_1/Div" type="MVN" version="opset6">
			<data eps="9.9999997473787516e-06" normalize_variance="true" eps_mode="INSIDE_SQRT" />
			<input>
				<port id="0" precision="FP32">
					<dim>1</dim>
					<dim>-1</dim>
					<dim>768</dim>
				</port>
				<port id="1" precision="I64">
					<dim>1</dim>
				</port>
			</input>
			<output>
				<port id="2" precision="FP32" names="/model/transformer/h.2/ln_1/Div_output_0">
					<dim>1</dim>
					<dim>-1</dim>
					<dim>768</dim>
				</port>
			</output>
		</layer>
		<layer id="253" name="Constant_24077" type="Const" version="opset1">
			<data element_type="f32" shape="1, 1, 768" offset="225785112" size="3072" />
			<output>
				<port id="0" precision="FP32">
					<dim>1</dim>
					<dim>1</dim>
					<dim>768</dim>
				</port>
			</output>
		</layer>
		<layer id="254" name="/model/transformer/h.2/ln_1/Mul" type="Multiply" version="opset1">
			<data auto_broadcast="numpy" />
			<input>
				<port id="0" precision="FP32">
					<dim>1</dim>
					<dim>-1</dim>
					<dim>768</dim>
				</port>
				<port id="1" precision="FP32">
					<dim>1</dim>
					<dim>1</dim>
					<dim>768</dim>
				</port>
			</input>
			<output>
				<port id="2" precision="FP32" names="/model/transformer/h.2/ln_1/Mul_output_0">
					<dim>1</dim>
					<dim>-1</dim>
					<dim>768</dim>
				</port>
			</output>
		</layer>
		<layer id="255" name="Constant_24078" type="Const" version="opset1">
			<data element_type="f32" shape="1, 1, 768" offset="225788184" size="3072" />
			<output>
				<port id="0" precision="FP32">
					<dim>1</dim>
					<dim>1</dim>
					<dim>768</dim>
				</port>
			</output>
		</layer>
		<layer id="256" name="/model/transformer/h.2/ln_1/Add_1" type="Add" version="opset1">
			<data auto_broadcast="numpy" />
			<input>
				<port id="0" precision="FP32">
					<dim>1</dim>
					<dim>-1</dim>
					<dim>768</dim>
				</port>
				<port id="1" precision="FP32">
					<dim>1</dim>
					<dim>1</dim>
					<dim>768</dim>
				</port>
			</input>
			<output>
				<port id="2" precision="FP32" names="/model/transformer/h.2/ln_1/Add_1_output_0">
					<dim>1</dim>
					<dim>-1</dim>
					<dim>768</dim>
				</port>
			</output>
		</layer>
		<layer id="257" name="Transpose_23054" type="Const" version="opset1">
			<data element_type="f32" shape="768, 768" offset="225791256" size="2359296" />
			<output>
				<port id="0" precision="FP32">
					<dim>768</dim>
					<dim>768</dim>
				</port>
			</output>
		</layer>
		<layer id="258" name="/model/transformer/h.2/attn/attention/k_proj/MatMul" type="MatMul" version="opset1">
			<data transpose_a="false" transpose_b="true" />
			<input>
				<port id="0" precision="FP32">
					<dim>1</dim>
					<dim>-1</dim>
					<dim>768</dim>
				</port>
				<port id="1" precision="FP32">
					<dim>768</dim>
					<dim>768</dim>
				</port>
			</input>
			<output>
				<port id="2" precision="FP32" names="/model/transformer/h.2/attn/attention/k_proj/MatMul_output_0">
					<dim>1</dim>
					<dim>-1</dim>
					<dim>768</dim>
				</port>
			</output>
		</layer>
		<layer id="259" name="/model/transformer/h.2/attn/attention/Concat_1" type="Const" version="opset1">
			<data element_type="i64" shape="4" offset="171471912" size="32" />
			<output>
				<port id="0" precision="I64">
					<dim>4</dim>
				</port>
			</output>
		</layer>
		<layer id="260" name="/model/transformer/h.2/attn/attention/Reshape_1" type="Reshape" version="opset1">
			<data special_zero="true" />
			<input>
				<port id="0" precision="FP32">
					<dim>1</dim>
					<dim>-1</dim>
					<dim>768</dim>
				</port>
				<port id="1" precision="I64">
					<dim>4</dim>
				</port>
			</input>
			<output>
				<port id="2" precision="FP32" names="/model/transformer/h.2/attn/attention/Reshape_1_output_0">
					<dim>1</dim>
					<dim>-1</dim>
					<dim>12</dim>
					<dim>64</dim>
				</port>
			</output>
		</layer>
		<layer id="261" name="Constant_1065" type="Const" version="opset1">
			<data element_type="i64" shape="4" offset="171471944" size="32" />
			<output>
				<port id="0" precision="I64">
					<dim>4</dim>
				</port>
			</output>
		</layer>
		<layer id="262" name="/model/transformer/h.2/attn/attention/Transpose_1" type="Transpose" version="opset1">
			<input>
				<port id="0" precision="FP32">
					<dim>1</dim>
					<dim>-1</dim>
					<dim>12</dim>
					<dim>64</dim>
				</port>
				<port id="1" precision="I64">
					<dim>4</dim>
				</port>
			</input>
			<output>
				<port id="2" precision="FP32" names="/model/transformer/h.2/attn/attention/Cast_1_output_0,/model/transformer/h.2/attn/attention/Transpose_1_output_0">
					<dim>1</dim>
					<dim>12</dim>
					<dim>-1</dim>
					<dim>64</dim>
				</port>
			</output>
		</layer>
		<layer id="263" name="ShapeOf_25451" type="ShapeOf" version="opset3">
			<data output_type="i64" />
			<input>
				<port id="0" precision="FP32">
					<dim>1</dim>
					<dim>12</dim>
					<dim>-1</dim>
					<dim>64</dim>
				</port>
			</input>
			<output>
				<port id="1" precision="I64">
					<dim>4</dim>
				</port>
			</output>
		</layer>
		<layer id="264" name="Constant_25452" type="Const" version="opset1">
			<data element_type="i64" shape="1" offset="171471976" size="8" />
			<output>
				<port id="0" precision="I64">
					<dim>1</dim>
				</port>
			</output>
		</layer>
		<layer id="265" name="Constant_25453" type="Const" version="opset1">
			<data element_type="i64" shape="" offset="162814992" size="8" />
			<output>
				<port id="0" precision="I64" />
			</output>
		</layer>
		<layer id="266" name="Gather_25454" type="Gather" version="opset8">
			<data batch_dims="0" />
			<input>
				<port id="0" precision="I64">
					<dim>4</dim>
				</port>
				<port id="1" precision="I64">
					<dim>1</dim>
				</port>
				<port id="2" precision="I64" />
			</input>
			<output>
				<port id="3" precision="I64" names="/model/transformer/h.2/attn/attention/Slice_1_output_0,/model/transformer/h.2/attn/attention/Slice_output_0,/model/transformer/h.2/attn/attention/Unsqueeze_7_output_0,/model/transformer/h.2/attn/attention/Unsqueeze_8_output_0">
					<dim>1</dim>
				</port>
			</output>
		</layer>
		<layer id="267" name="/model/transformer/h.2/attn/attention/Sub" type="Subtract" version="opset1">
			<data auto_broadcast="numpy" />
			<input>
				<port id="0" precision="I64">
					<dim>1</dim>
				</port>
				<port id="1" precision="I64">
					<dim>1</dim>
				</port>
			</input>
			<output>
				<port id="2" precision="I64" names="/model/transformer/h.2/attn/attention/Sub_output_0,/model/transformer/h.2/attn/attention/Unsqueeze_6_output_0">
					<dim>1</dim>
				</port>
			</output>
		</layer>
		<layer id="268" name="/model/transformer/h.2/attn/attention/Constant_21" type="Const" version="opset1">
			<data element_type="i64" shape="1" offset="162814992" size="8" />
			<output>
				<port id="0" precision="I64" names="/model/transformer/h.2/attn/attention/Constant_21_output_0">
					<dim>1</dim>
				</port>
			</output>
		</layer>
		<layer id="269" name="Concat_21906" type="Concat" version="opset1">
			<data axis="0" />
			<input>
				<port id="0" precision="I64">
					<dim>1</dim>
				</port>
				<port id="1" precision="I64">
					<dim>1</dim>
				</port>
			</input>
			<output>
				<port id="2" precision="I64">
					<dim>2</dim>
				</port>
			</output>
		</layer>
		<layer id="270" name="Constant_22652" type="Const" version="opset1">
			<data element_type="i32" shape="1" offset="171471984" size="4" />
			<output>
				<port id="0" precision="I32">
					<dim>1</dim>
				</port>
			</output>
		</layer>
		<layer id="271" name="Concat_21907" type="Broadcast" version="opset3">
			<data mode="numpy" />
			<input>
				<port id="0" precision="I64">
					<dim>1</dim>
				</port>
				<port id="1" precision="I32">
					<dim>1</dim>
				</port>
			</input>
			<output>
				<port id="2" precision="I64">
					<dim>2</dim>
				</port>
			</output>
		</layer>
		<layer id="272" name="Constant_21911" type="Const" version="opset1">
			<data element_type="i64" shape="2" offset="171471988" size="16" />
			<output>
				<port id="0" precision="I64">
					<dim>2</dim>
				</port>
			</output>
		</layer>
		<layer id="273" name="Constant_21910" type="Const" version="opset1">
			<data element_type="i64" shape="2" offset="171472004" size="16" />
			<output>
				<port id="0" precision="I64">
					<dim>2</dim>
				</port>
			</output>
		</layer>
		<layer id="274" name="/model/transformer/h.2/attn/attention/Slice_3" type="Slice" version="opset8">
			<input>
				<port id="0" precision="BOOL">
					<dim>1</dim>
					<dim>1</dim>
					<dim>2048</dim>
					<dim>2048</dim>
				</port>
				<port id="1" precision="I64">
					<dim>2</dim>
				</port>
				<port id="2" precision="I64">
					<dim>2</dim>
				</port>
				<port id="3" precision="I64">
					<dim>2</dim>
				</port>
				<port id="4" precision="I64">
					<dim>2</dim>
				</port>
			</input>
			<output>
				<port id="5" precision="BOOL" names="/model/transformer/h.2/attn/attention/Slice_3_output_0">
					<dim>1</dim>
					<dim>1</dim>
					<dim>-1</dim>
					<dim>-1</dim>
				</port>
			</output>
		</layer>
		<layer id="275" name="Transpose_23057" type="Const" version="opset1">
			<data element_type="f32" shape="768, 768" offset="228150552" size="2359296" />
			<output>
				<port id="0" precision="FP32">
					<dim>768</dim>
					<dim>768</dim>
				</port>
			</output>
		</layer>
		<layer id="276" name="/model/transformer/h.2/attn/attention/q_proj/MatMul" type="MatMul" version="opset1">
			<data transpose_a="false" transpose_b="true" />
			<input>
				<port id="0" precision="FP32">
					<dim>1</dim>
					<dim>-1</dim>
					<dim>768</dim>
				</port>
				<port id="1" precision="FP32">
					<dim>768</dim>
					<dim>768</dim>
				</port>
			</input>
			<output>
				<port id="2" precision="FP32" names="/model/transformer/h.2/attn/attention/q_proj/MatMul_output_0">
					<dim>1</dim>
					<dim>-1</dim>
					<dim>768</dim>
				</port>
			</output>
		</layer>
		<layer id="277" name="/model/transformer/h.2/attn/attention/Concat" type="Const" version="opset1">
			<data element_type="i64" shape="4" offset="171471912" size="32" />
			<output>
				<port id="0" precision="I64">
					<dim>4</dim>
				</port>
			</output>
		</layer>
		<layer id="278" name="/model/transformer/h.2/attn/attention/Reshape" type="Reshape" version="opset1">
			<data special_zero="true" />
			<input>
				<port id="0" precision="FP32">
					<dim>1</dim>
					<dim>-1</dim>
					<dim>768</dim>
				</port>
				<port id="1" precision="I64">
					<dim>4</dim>
				</port>
			</input>
			<output>
				<port id="2" precision="FP32" names="/model/transformer/h.2/attn/attention/Reshape_output_0">
					<dim>1</dim>
					<dim>-1</dim>
					<dim>12</dim>
					<dim>64</dim>
				</port>
			</output>
		</layer>
		<layer id="279" name="Constant_1045" type="Const" version="opset1">
			<data element_type="i64" shape="4" offset="171471944" size="32" />
			<output>
				<port id="0" precision="I64">
					<dim>4</dim>
				</port>
			</output>
		</layer>
		<layer id="280" name="/model/transformer/h.2/attn/attention/Transpose" type="Transpose" version="opset1">
			<input>
				<port id="0" precision="FP32">
					<dim>1</dim>
					<dim>-1</dim>
					<dim>12</dim>
					<dim>64</dim>
				</port>
				<port id="1" precision="I64">
					<dim>4</dim>
				</port>
			</input>
			<output>
				<port id="2" precision="FP32" names="/model/transformer/h.2/attn/attention/Cast_output_0,/model/transformer/h.2/attn/attention/Transpose_output_0">
					<dim>1</dim>
					<dim>12</dim>
					<dim>-1</dim>
					<dim>64</dim>
				</port>
			</output>
		</layer>
		<layer id="281" name="/model/transformer/h.2/attn/attention/MatMul" type="MatMul" version="opset1">
			<data transpose_a="false" transpose_b="true" />
			<input>
				<port id="0" precision="FP32">
					<dim>1</dim>
					<dim>12</dim>
					<dim>-1</dim>
					<dim>64</dim>
				</port>
				<port id="1" precision="FP32">
					<dim>1</dim>
					<dim>12</dim>
					<dim>-1</dim>
					<dim>64</dim>
				</port>
			</input>
			<output>
				<port id="2" precision="FP32" names="/model/transformer/h.2/attn/attention/MatMul_output_0">
					<dim>1</dim>
					<dim>12</dim>
					<dim>-1</dim>
					<dim>-1</dim>
				</port>
			</output>
		</layer>
		<layer id="282" name="/model/transformer/h.2/attn/attention/Constant_23" type="Const" version="opset1">
			<data element_type="f32" shape="" offset="173831316" size="4" />
			<output>
				<port id="0" precision="FP32" names="/model/transformer/h.2/attn/attention/Constant_23_output_0" />
			</output>
		</layer>
		<layer id="283" name="/model/transformer/h.2/attn/attention/Where" type="Select" version="opset1">
			<data auto_broadcast="numpy" />
			<input>
				<port id="0" precision="BOOL">
					<dim>1</dim>
					<dim>1</dim>
					<dim>-1</dim>
					<dim>-1</dim>
				</port>
				<port id="1" precision="FP32">
					<dim>1</dim>
					<dim>12</dim>
					<dim>-1</dim>
					<dim>-1</dim>
				</port>
				<port id="2" precision="FP32" />
			</input>
			<output>
				<port id="3" precision="FP32" names="/model/transformer/h.2/attn/attention/Where_output_0">
					<dim>1</dim>
					<dim>12</dim>
					<dim>-1</dim>
					<dim>-1</dim>
				</port>
			</output>
		</layer>
		<layer id="284" name="/model/transformer/h.2/attn/attention/Add" type="Add" version="opset1">
			<data auto_broadcast="numpy" />
			<input>
				<port id="0" precision="FP32">
					<dim>1</dim>
					<dim>12</dim>
					<dim>-1</dim>
					<dim>-1</dim>
				</port>
				<port id="1" precision="FP32">
					<dim>1</dim>
					<dim>1</dim>
					<dim>-1</dim>
					<dim>-1</dim>
				</port>
			</input>
			<output>
				<port id="2" precision="FP32" names="/model/transformer/h.2/attn/attention/Add_output_0">
					<dim>1</dim>
					<dim>12</dim>
					<dim>-1</dim>
					<dim>-1</dim>
				</port>
			</output>
		</layer>
		<layer id="285" name="/model/transformer/h.2/attn/attention/Softmax" type="SoftMax" version="opset8">
			<data axis="3" />
			<input>
				<port id="0" precision="FP32">
					<dim>1</dim>
					<dim>12</dim>
					<dim>-1</dim>
					<dim>-1</dim>
				</port>
			</input>
			<output>
				<port id="1" precision="FP32" names="/model/transformer/h.2/attn/attention/Cast_2_output_0,/model/transformer/h.2/attn/attention/Softmax_output_0">
					<dim>1</dim>
					<dim>12</dim>
					<dim>-1</dim>
					<dim>-1</dim>
				</port>
			</output>
		</layer>
		<layer id="286" name="Transpose_23062" type="Const" version="opset1">
			<data element_type="f32" shape="768, 768" offset="230509848" size="2359296" />
			<output>
				<port id="0" precision="FP32">
					<dim>768</dim>
					<dim>768</dim>
				</port>
			</output>
		</layer>
		<layer id="287" name="/model/transformer/h.2/attn/attention/v_proj/MatMul" type="MatMul" version="opset1">
			<data transpose_a="false" transpose_b="true" />
			<input>
				<port id="0" precision="FP32">
					<dim>1</dim>
					<dim>-1</dim>
					<dim>768</dim>
				</port>
				<port id="1" precision="FP32">
					<dim>768</dim>
					<dim>768</dim>
				</port>
			</input>
			<output>
				<port id="2" precision="FP32" names="/model/transformer/h.2/attn/attention/v_proj/MatMul_output_0">
					<dim>1</dim>
					<dim>-1</dim>
					<dim>768</dim>
				</port>
			</output>
		</layer>
		<layer id="288" name="/model/transformer/h.2/attn/attention/Concat_2" type="Const" version="opset1">
			<data element_type="i64" shape="4" offset="171471912" size="32" />
			<output>
				<port id="0" precision="I64">
					<dim>4</dim>
				</port>
			</output>
		</layer>
		<layer id="289" name="/model/transformer/h.2/attn/attention/Reshape_2" type="Reshape" version="opset1">
			<data special_zero="true" />
			<input>
				<port id="0" precision="FP32">
					<dim>1</dim>
					<dim>-1</dim>
					<dim>768</dim>
				</port>
				<port id="1" precision="I64">
					<dim>4</dim>
				</port>
			</input>
			<output>
				<port id="2" precision="FP32" names="/model/transformer/h.2/attn/attention/Reshape_2_output_0">
					<dim>1</dim>
					<dim>-1</dim>
					<dim>12</dim>
					<dim>64</dim>
				</port>
			</output>
		</layer>
		<layer id="290" name="Constant_1085" type="Const" version="opset1">
			<data element_type="i64" shape="4" offset="171471944" size="32" />
			<output>
				<port id="0" precision="I64">
					<dim>4</dim>
				</port>
			</output>
		</layer>
		<layer id="291" name="/model/transformer/h.2/attn/attention/Transpose_2" type="Transpose" version="opset1">
			<input>
				<port id="0" precision="FP32">
					<dim>1</dim>
					<dim>-1</dim>
					<dim>12</dim>
					<dim>64</dim>
				</port>
				<port id="1" precision="I64">
					<dim>4</dim>
				</port>
			</input>
			<output>
				<port id="2" precision="FP32" names="/model/transformer/h.2/attn/attention/Transpose_2_output_0">
					<dim>1</dim>
					<dim>12</dim>
					<dim>-1</dim>
					<dim>64</dim>
				</port>
			</output>
		</layer>
		<layer id="292" name="/model/transformer/h.2/attn/attention/MatMul_1" type="MatMul" version="opset1">
			<data transpose_a="false" transpose_b="false" />
			<input>
				<port id="0" precision="FP32">
					<dim>1</dim>
					<dim>12</dim>
					<dim>-1</dim>
					<dim>-1</dim>
				</port>
				<port id="1" precision="FP32">
					<dim>1</dim>
					<dim>12</dim>
					<dim>-1</dim>
					<dim>64</dim>
				</port>
			</input>
			<output>
				<port id="2" precision="FP32" names="/model/transformer/h.2/attn/attention/MatMul_1_output_0">
					<dim>1</dim>
					<dim>12</dim>
					<dim>-1</dim>
					<dim>64</dim>
				</port>
			</output>
		</layer>
		<layer id="293" name="Constant_1214" type="Const" version="opset1">
			<data element_type="i64" shape="4" offset="171471944" size="32" />
			<output>
				<port id="0" precision="I64">
					<dim>4</dim>
				</port>
			</output>
		</layer>
		<layer id="294" name="/model/transformer/h.2/attn/attention/Transpose_4" type="Transpose" version="opset1">
			<input>
				<port id="0" precision="FP32">
					<dim>1</dim>
					<dim>12</dim>
					<dim>-1</dim>
					<dim>64</dim>
				</port>
				<port id="1" precision="I64">
					<dim>4</dim>
				</port>
			</input>
			<output>
				<port id="2" precision="FP32" names="/model/transformer/h.2/attn/attention/Transpose_4_output_0">
					<dim>1</dim>
					<dim>-1</dim>
					<dim>12</dim>
					<dim>64</dim>
				</port>
			</output>
		</layer>
		<layer id="295" name="/model/transformer/h.2/attn/attention/Concat_3" type="Const" version="opset1">
			<data element_type="i64" shape="3" offset="176190704" size="24" />
			<output>
				<port id="0" precision="I64">
					<dim>3</dim>
				</port>
			</output>
		</layer>
		<layer id="296" name="/model/transformer/h.2/attn/attention/Reshape_3" type="Reshape" version="opset1">
			<data special_zero="true" />
			<input>
				<port id="0" precision="FP32">
					<dim>1</dim>
					<dim>-1</dim>
					<dim>12</dim>
					<dim>64</dim>
				</port>
				<port id="1" precision="I64">
					<dim>3</dim>
				</port>
			</input>
			<output>
				<port id="2" precision="FP32" names="/model/transformer/h.2/attn/attention/Reshape_3_output_0">
					<dim>1</dim>
					<dim>-1</dim>
					<dim>768</dim>
				</port>
			</output>
		</layer>
		<layer id="297" name="Transpose_23065" type="Const" version="opset1">
			<data element_type="f32" shape="768, 768" offset="232869144" size="2359296" />
			<output>
				<port id="0" precision="FP32">
					<dim>768</dim>
					<dim>768</dim>
				</port>
			</output>
		</layer>
		<layer id="298" name="/model/transformer/h.2/attn/attention/out_proj/MatMul" type="MatMul" version="opset1">
			<data transpose_a="false" transpose_b="true" />
			<input>
				<port id="0" precision="FP32">
					<dim>1</dim>
					<dim>-1</dim>
					<dim>768</dim>
				</port>
				<port id="1" precision="FP32">
					<dim>768</dim>
					<dim>768</dim>
				</port>
			</input>
			<output>
				<port id="2" precision="FP32" names="/model/transformer/h.2/attn/attention/out_proj/MatMul_output_0">
					<dim>1</dim>
					<dim>-1</dim>
					<dim>768</dim>
				</port>
			</output>
		</layer>
		<layer id="299" name="/model/transformer/h.2/attn/attention/out_proj/Add" type="Add" version="opset1">
			<data auto_broadcast="numpy" />
			<input>
				<port id="0" precision="FP32">
					<dim>1</dim>
					<dim>1</dim>
					<dim>768</dim>
				</port>
				<port id="1" precision="FP32">
					<dim>1</dim>
					<dim>-1</dim>
					<dim>768</dim>
				</port>
			</input>
			<output>
				<port id="2" precision="FP32" names="/model/transformer/h.2/attn/attention/out_proj/Add_output_0">
					<dim>1</dim>
					<dim>-1</dim>
					<dim>768</dim>
				</port>
			</output>
		</layer>
		<layer id="300" name="/model/transformer/h.2/Add" type="Add" version="opset1">
			<data auto_broadcast="numpy" />
			<input>
				<port id="0" precision="FP32">
					<dim>1</dim>
					<dim>-1</dim>
					<dim>768</dim>
				</port>
				<port id="1" precision="FP32">
					<dim>1</dim>
					<dim>-1</dim>
					<dim>768</dim>
				</port>
			</input>
			<output>
				<port id="2" precision="FP32" names="/model/transformer/h.2/Add_output_0">
					<dim>1</dim>
					<dim>-1</dim>
					<dim>768</dim>
				</port>
			</output>
		</layer>
		<layer id="301" name="Constant_24088" type="Const" version="opset1">
			<data element_type="f32" shape="1, 1, 768" offset="235228440" size="3072" />
			<output>
				<port id="0" precision="FP32">
					<dim>1</dim>
					<dim>1</dim>
					<dim>768</dim>
				</port>
			</output>
		</layer>
		<layer id="302" name="Constant_24082" type="Const" version="opset1">
			<data element_type="f32" shape="1, 1, 3072" offset="235231512" size="12288" />
			<output>
				<port id="0" precision="FP32">
					<dim>1</dim>
					<dim>1</dim>
					<dim>3072</dim>
				</port>
			</output>
		</layer>
		<layer id="303" name="Constant_1236" type="Const" version="opset1">
			<data element_type="i64" shape="1" offset="169106464" size="8" />
			<output>
				<port id="0" precision="I64">
					<dim>1</dim>
				</port>
			</output>
		</layer>
		<layer id="304" name="/model/transformer/h.2/ln_2/Div" type="MVN" version="opset6">
			<data eps="9.9999997473787516e-06" normalize_variance="true" eps_mode="INSIDE_SQRT" />
			<input>
				<port id="0" precision="FP32">
					<dim>1</dim>
					<dim>-1</dim>
					<dim>768</dim>
				</port>
				<port id="1" precision="I64">
					<dim>1</dim>
				</port>
			</input>
			<output>
				<port id="2" precision="FP32" names="/model/transformer/h.2/ln_2/Div_output_0">
					<dim>1</dim>
					<dim>-1</dim>
					<dim>768</dim>
				</port>
			</output>
		</layer>
		<layer id="305" name="Constant_24080" type="Const" version="opset1">
			<data element_type="f32" shape="1, 1, 768" offset="235243800" size="3072" />
			<output>
				<port id="0" precision="FP32">
					<dim>1</dim>
					<dim>1</dim>
					<dim>768</dim>
				</port>
			</output>
		</layer>
		<layer id="306" name="/model/transformer/h.2/ln_2/Mul" type="Multiply" version="opset1">
			<data auto_broadcast="numpy" />
			<input>
				<port id="0" precision="FP32">
					<dim>1</dim>
					<dim>-1</dim>
					<dim>768</dim>
				</port>
				<port id="1" precision="FP32">
					<dim>1</dim>
					<dim>1</dim>
					<dim>768</dim>
				</port>
			</input>
			<output>
				<port id="2" precision="FP32" names="/model/transformer/h.2/ln_2/Mul_output_0">
					<dim>1</dim>
					<dim>-1</dim>
					<dim>768</dim>
				</port>
			</output>
		</layer>
		<layer id="307" name="Constant_24081" type="Const" version="opset1">
			<data element_type="f32" shape="1, 1, 768" offset="235246872" size="3072" />
			<output>
				<port id="0" precision="FP32">
					<dim>1</dim>
					<dim>1</dim>
					<dim>768</dim>
				</port>
			</output>
		</layer>
		<layer id="308" name="/model/transformer/h.2/ln_2/Add_1" type="Add" version="opset1">
			<data auto_broadcast="numpy" />
			<input>
				<port id="0" precision="FP32">
					<dim>1</dim>
					<dim>-1</dim>
					<dim>768</dim>
				</port>
				<port id="1" precision="FP32">
					<dim>1</dim>
					<dim>1</dim>
					<dim>768</dim>
				</port>
			</input>
			<output>
				<port id="2" precision="FP32" names="/model/transformer/h.2/ln_2/Add_1_output_0">
					<dim>1</dim>
					<dim>-1</dim>
					<dim>768</dim>
				</port>
			</output>
		</layer>
		<layer id="309" name="Transpose_23083" type="Const" version="opset1">
			<data element_type="f32" shape="3072, 768" offset="235249944" size="9437184" />
			<output>
				<port id="0" precision="FP32">
					<dim>3072</dim>
					<dim>768</dim>
				</port>
			</output>
		</layer>
		<layer id="310" name="/model/transformer/h.2/mlp/c_fc/MatMul" type="MatMul" version="opset1">
			<data transpose_a="false" transpose_b="true" />
			<input>
				<port id="0" precision="FP32">
					<dim>1</dim>
					<dim>-1</dim>
					<dim>768</dim>
				</port>
				<port id="1" precision="FP32">
					<dim>3072</dim>
					<dim>768</dim>
				</port>
			</input>
			<output>
				<port id="2" precision="FP32" names="/model/transformer/h.2/mlp/c_fc/MatMul_output_0">
					<dim>1</dim>
					<dim>-1</dim>
					<dim>3072</dim>
				</port>
			</output>
		</layer>
		<layer id="311" name="/model/transformer/h.2/mlp/c_fc/Add" type="Add" version="opset1">
			<data auto_broadcast="numpy" />
			<input>
				<port id="0" precision="FP32">
					<dim>1</dim>
					<dim>1</dim>
					<dim>3072</dim>
				</port>
				<port id="1" precision="FP32">
					<dim>1</dim>
					<dim>-1</dim>
					<dim>3072</dim>
				</port>
			</input>
			<output>
				<port id="2" precision="FP32" names="/model/transformer/h.2/mlp/c_fc/Add_output_0">
					<dim>1</dim>
					<dim>-1</dim>
					<dim>3072</dim>
				</port>
			</output>
		</layer>
		<layer id="312" name="Constant_24083" type="Const" version="opset1">
			<data element_type="f32" shape="1, 1, 1" offset="188008712" size="4" />
			<output>
				<port id="0" precision="FP32">
					<dim>1</dim>
					<dim>1</dim>
					<dim>1</dim>
				</port>
			</output>
		</layer>
		<layer id="313" name="/model/transformer/h.2/mlp/act/Mul" type="Multiply" version="opset1">
			<data auto_broadcast="numpy" />
			<input>
				<port id="0" precision="FP32">
					<dim>1</dim>
					<dim>-1</dim>
					<dim>3072</dim>
				</port>
				<port id="1" precision="FP32">
					<dim>1</dim>
					<dim>1</dim>
					<dim>1</dim>
				</port>
			</input>
			<output>
				<port id="2" precision="FP32" names="/model/transformer/h.2/mlp/act/Mul_output_0">
					<dim>1</dim>
					<dim>-1</dim>
					<dim>3072</dim>
				</port>
			</output>
		</layer>
		<layer id="314" name="Constant_24084" type="Const" version="opset1">
			<data element_type="f32" shape="1, 1, 1" offset="188008716" size="4" />
			<output>
				<port id="0" precision="FP32">
					<dim>1</dim>
					<dim>1</dim>
					<dim>1</dim>
				</port>
			</output>
		</layer>
		<layer id="315" name="/model/transformer/h.2/mlp/act/Pow" type="Power" version="opset1">
			<data auto_broadcast="numpy" />
			<input>
				<port id="0" precision="FP32">
					<dim>1</dim>
					<dim>-1</dim>
					<dim>3072</dim>
				</port>
				<port id="1" precision="FP32">
					<dim>1</dim>
					<dim>1</dim>
					<dim>1</dim>
				</port>
			</input>
			<output>
				<port id="2" precision="FP32" names="/model/transformer/h.2/mlp/act/Pow_output_0">
					<dim>1</dim>
					<dim>-1</dim>
					<dim>3072</dim>
				</port>
			</output>
		</layer>
		<layer id="316" name="Constant_24085" type="Const" version="opset1">
			<data element_type="f32" shape="1, 1, 1" offset="188008720" size="4" />
			<output>
				<port id="0" precision="FP32">
					<dim>1</dim>
					<dim>1</dim>
					<dim>1</dim>
				</port>
			</output>
		</layer>
		<layer id="317" name="/model/transformer/h.2/mlp/act/Mul_1" type="Multiply" version="opset1">
			<data auto_broadcast="numpy" />
			<input>
				<port id="0" precision="FP32">
					<dim>1</dim>
					<dim>-1</dim>
					<dim>3072</dim>
				</port>
				<port id="1" precision="FP32">
					<dim>1</dim>
					<dim>1</dim>
					<dim>1</dim>
				</port>
			</input>
			<output>
				<port id="2" precision="FP32" names="/model/transformer/h.2/mlp/act/Mul_1_output_0">
					<dim>1</dim>
					<dim>-1</dim>
					<dim>3072</dim>
				</port>
			</output>
		</layer>
		<layer id="318" name="/model/transformer/h.2/mlp/act/Add" type="Add" version="opset1">
			<data auto_broadcast="numpy" />
			<input>
				<port id="0" precision="FP32">
					<dim>1</dim>
					<dim>-1</dim>
					<dim>3072</dim>
				</port>
				<port id="1" precision="FP32">
					<dim>1</dim>
					<dim>-1</dim>
					<dim>3072</dim>
				</port>
			</input>
			<output>
				<port id="2" precision="FP32" names="/model/transformer/h.2/mlp/act/Add_output_0">
					<dim>1</dim>
					<dim>-1</dim>
					<dim>3072</dim>
				</port>
			</output>
		</layer>
		<layer id="319" name="Constant_24086" type="Const" version="opset1">
			<data element_type="f32" shape="1, 1, 1" offset="188008724" size="4" />
			<output>
				<port id="0" precision="FP32">
					<dim>1</dim>
					<dim>1</dim>
					<dim>1</dim>
				</port>
			</output>
		</layer>
		<layer id="320" name="/model/transformer/h.2/mlp/act/Mul_2" type="Multiply" version="opset1">
			<data auto_broadcast="numpy" />
			<input>
				<port id="0" precision="FP32">
					<dim>1</dim>
					<dim>-1</dim>
					<dim>3072</dim>
				</port>
				<port id="1" precision="FP32">
					<dim>1</dim>
					<dim>1</dim>
					<dim>1</dim>
				</port>
			</input>
			<output>
				<port id="2" precision="FP32" names="/model/transformer/h.2/mlp/act/Mul_2_output_0">
					<dim>1</dim>
					<dim>-1</dim>
					<dim>3072</dim>
				</port>
			</output>
		</layer>
		<layer id="321" name="/model/transformer/h.2/mlp/act/Tanh" type="Tanh" version="opset1">
			<input>
				<port id="0" precision="FP32">
					<dim>1</dim>
					<dim>-1</dim>
					<dim>3072</dim>
				</port>
			</input>
			<output>
				<port id="1" precision="FP32" names="/model/transformer/h.2/mlp/act/Tanh_output_0">
					<dim>1</dim>
					<dim>-1</dim>
					<dim>3072</dim>
				</port>
			</output>
		</layer>
		<layer id="322" name="Constant_24087" type="Const" version="opset1">
			<data element_type="f32" shape="1, 1, 1" offset="173831320" size="4" />
			<output>
				<port id="0" precision="FP32">
					<dim>1</dim>
					<dim>1</dim>
					<dim>1</dim>
				</port>
			</output>
		</layer>
		<layer id="323" name="/model/transformer/h.2/mlp/act/Add_1" type="Add" version="opset1">
			<data auto_broadcast="numpy" />
			<input>
				<port id="0" precision="FP32">
					<dim>1</dim>
					<dim>-1</dim>
					<dim>3072</dim>
				</port>
				<port id="1" precision="FP32">
					<dim>1</dim>
					<dim>1</dim>
					<dim>1</dim>
				</port>
			</input>
			<output>
				<port id="2" precision="FP32" names="/model/transformer/h.2/mlp/act/Add_1_output_0">
					<dim>1</dim>
					<dim>-1</dim>
					<dim>3072</dim>
				</port>
			</output>
		</layer>
		<layer id="324" name="/model/transformer/h.2/mlp/act/Mul_3" type="Multiply" version="opset1">
			<data auto_broadcast="numpy" />
			<input>
				<port id="0" precision="FP32">
					<dim>1</dim>
					<dim>-1</dim>
					<dim>3072</dim>
				</port>
				<port id="1" precision="FP32">
					<dim>1</dim>
					<dim>-1</dim>
					<dim>3072</dim>
				</port>
			</input>
			<output>
				<port id="2" precision="FP32" names="/model/transformer/h.2/mlp/act/Mul_3_output_0">
					<dim>1</dim>
					<dim>-1</dim>
					<dim>3072</dim>
				</port>
			</output>
		</layer>
		<layer id="325" name="Transpose_23102" type="Const" version="opset1">
			<data element_type="f32" shape="768, 3072" offset="244687128" size="9437184" />
			<output>
				<port id="0" precision="FP32">
					<dim>768</dim>
					<dim>3072</dim>
				</port>
			</output>
		</layer>
		<layer id="326" name="/model/transformer/h.2/mlp/c_proj/MatMul" type="MatMul" version="opset1">
			<data transpose_a="false" transpose_b="true" />
			<input>
				<port id="0" precision="FP32">
					<dim>1</dim>
					<dim>-1</dim>
					<dim>3072</dim>
				</port>
				<port id="1" precision="FP32">
					<dim>768</dim>
					<dim>3072</dim>
				</port>
			</input>
			<output>
				<port id="2" precision="FP32" names="/model/transformer/h.2/mlp/c_proj/MatMul_output_0">
					<dim>1</dim>
					<dim>-1</dim>
					<dim>768</dim>
				</port>
			</output>
		</layer>
		<layer id="327" name="/model/transformer/h.2/mlp/c_proj/Add" type="Add" version="opset1">
			<data auto_broadcast="numpy" />
			<input>
				<port id="0" precision="FP32">
					<dim>1</dim>
					<dim>1</dim>
					<dim>768</dim>
				</port>
				<port id="1" precision="FP32">
					<dim>1</dim>
					<dim>-1</dim>
					<dim>768</dim>
				</port>
			</input>
			<output>
				<port id="2" precision="FP32" names="/model/transformer/h.2/mlp/c_proj/Add_output_0">
					<dim>1</dim>
					<dim>-1</dim>
					<dim>768</dim>
				</port>
			</output>
		</layer>
		<layer id="328" name="/model/transformer/h.2/Add_1" type="Add" version="opset1">
			<data auto_broadcast="numpy" />
			<input>
				<port id="0" precision="FP32">
					<dim>1</dim>
					<dim>-1</dim>
					<dim>768</dim>
				</port>
				<port id="1" precision="FP32">
					<dim>1</dim>
					<dim>-1</dim>
					<dim>768</dim>
				</port>
			</input>
			<output>
				<port id="2" precision="FP32" names="/model/transformer/h.2/Add_1_output_0">
					<dim>1</dim>
					<dim>-1</dim>
					<dim>768</dim>
				</port>
			</output>
		</layer>
		<layer id="329" name="Constant_1267" type="Const" version="opset1">
			<data element_type="i64" shape="1" offset="169106464" size="8" />
			<output>
				<port id="0" precision="I64">
					<dim>1</dim>
				</port>
			</output>
		</layer>
		<layer id="330" name="/model/transformer/h.3/ln_1/Div" type="MVN" version="opset6">
			<data eps="9.9999997473787516e-06" normalize_variance="true" eps_mode="INSIDE_SQRT" />
			<input>
				<port id="0" precision="FP32">
					<dim>1</dim>
					<dim>-1</dim>
					<dim>768</dim>
				</port>
				<port id="1" precision="I64">
					<dim>1</dim>
				</port>
			</input>
			<output>
				<port id="2" precision="FP32" names="/model/transformer/h.3/ln_1/Div_output_0">
					<dim>1</dim>
					<dim>-1</dim>
					<dim>768</dim>
				</port>
			</output>
		</layer>
		<layer id="331" name="Constant_24089" type="Const" version="opset1">
			<data element_type="f32" shape="1, 1, 768" offset="254124312" size="3072" />
			<output>
				<port id="0" precision="FP32">
					<dim>1</dim>
					<dim>1</dim>
					<dim>768</dim>
				</port>
			</output>
		</layer>
		<layer id="332" name="/model/transformer/h.3/ln_1/Mul" type="Multiply" version="opset1">
			<data auto_broadcast="numpy" />
			<input>
				<port id="0" precision="FP32">
					<dim>1</dim>
					<dim>-1</dim>
					<dim>768</dim>
				</port>
				<port id="1" precision="FP32">
					<dim>1</dim>
					<dim>1</dim>
					<dim>768</dim>
				</port>
			</input>
			<output>
				<port id="2" precision="FP32" names="/model/transformer/h.3/ln_1/Mul_output_0">
					<dim>1</dim>
					<dim>-1</dim>
					<dim>768</dim>
				</port>
			</output>
		</layer>
		<layer id="333" name="Constant_24090" type="Const" version="opset1">
			<data element_type="f32" shape="1, 1, 768" offset="254127384" size="3072" />
			<output>
				<port id="0" precision="FP32">
					<dim>1</dim>
					<dim>1</dim>
					<dim>768</dim>
				</port>
			</output>
		</layer>
		<layer id="334" name="/model/transformer/h.3/ln_1/Add_1" type="Add" version="opset1">
			<data auto_broadcast="numpy" />
			<input>
				<port id="0" precision="FP32">
					<dim>1</dim>
					<dim>-1</dim>
					<dim>768</dim>
				</port>
				<port id="1" precision="FP32">
					<dim>1</dim>
					<dim>1</dim>
					<dim>768</dim>
				</port>
			</input>
			<output>
				<port id="2" precision="FP32" names="/model/transformer/h.3/ln_1/Add_1_output_0">
					<dim>1</dim>
					<dim>-1</dim>
					<dim>768</dim>
				</port>
			</output>
		</layer>
		<layer id="335" name="Transpose_23120" type="Const" version="opset1">
			<data element_type="f32" shape="768, 768" offset="254130456" size="2359296" />
			<output>
				<port id="0" precision="FP32">
					<dim>768</dim>
					<dim>768</dim>
				</port>
			</output>
		</layer>
		<layer id="336" name="/model/transformer/h.3/attn/attention/k_proj/MatMul" type="MatMul" version="opset1">
			<data transpose_a="false" transpose_b="true" />
			<input>
				<port id="0" precision="FP32">
					<dim>1</dim>
					<dim>-1</dim>
					<dim>768</dim>
				</port>
				<port id="1" precision="FP32">
					<dim>768</dim>
					<dim>768</dim>
				</port>
			</input>
			<output>
				<port id="2" precision="FP32" names="/model/transformer/h.3/attn/attention/k_proj/MatMul_output_0">
					<dim>1</dim>
					<dim>-1</dim>
					<dim>768</dim>
				</port>
			</output>
		</layer>
		<layer id="337" name="/model/transformer/h.3/attn/attention/Concat_1" type="Const" version="opset1">
			<data element_type="i64" shape="4" offset="171471912" size="32" />
			<output>
				<port id="0" precision="I64">
					<dim>4</dim>
				</port>
			</output>
		</layer>
		<layer id="338" name="/model/transformer/h.3/attn/attention/Reshape_1" type="Reshape" version="opset1">
			<data special_zero="true" />
			<input>
				<port id="0" precision="FP32">
					<dim>1</dim>
					<dim>-1</dim>
					<dim>768</dim>
				</port>
				<port id="1" precision="I64">
					<dim>4</dim>
				</port>
			</input>
			<output>
				<port id="2" precision="FP32" names="/model/transformer/h.3/attn/attention/Reshape_1_output_0">
					<dim>1</dim>
					<dim>-1</dim>
					<dim>12</dim>
					<dim>64</dim>
				</port>
			</output>
		</layer>
		<layer id="339" name="Constant_1321" type="Const" version="opset1">
			<data element_type="i64" shape="4" offset="171471944" size="32" />
			<output>
				<port id="0" precision="I64">
					<dim>4</dim>
				</port>
			</output>
		</layer>
		<layer id="340" name="/model/transformer/h.3/attn/attention/Transpose_1" type="Transpose" version="opset1">
			<input>
				<port id="0" precision="FP32">
					<dim>1</dim>
					<dim>-1</dim>
					<dim>12</dim>
					<dim>64</dim>
				</port>
				<port id="1" precision="I64">
					<dim>4</dim>
				</port>
			</input>
			<output>
				<port id="2" precision="FP32" names="/model/transformer/h.3/attn/attention/Cast_1_output_0,/model/transformer/h.3/attn/attention/Transpose_1_output_0">
					<dim>1</dim>
					<dim>12</dim>
					<dim>-1</dim>
					<dim>64</dim>
				</port>
			</output>
		</layer>
		<layer id="341" name="ShapeOf_25460" type="ShapeOf" version="opset3">
			<data output_type="i64" />
			<input>
				<port id="0" precision="FP32">
					<dim>1</dim>
					<dim>12</dim>
					<dim>-1</dim>
					<dim>64</dim>
				</port>
			</input>
			<output>
				<port id="1" precision="I64">
					<dim>4</dim>
				</port>
			</output>
		</layer>
		<layer id="342" name="Constant_25461" type="Const" version="opset1">
			<data element_type="i64" shape="1" offset="171471976" size="8" />
			<output>
				<port id="0" precision="I64">
					<dim>1</dim>
				</port>
			</output>
		</layer>
		<layer id="343" name="Constant_25462" type="Const" version="opset1">
			<data element_type="i64" shape="" offset="162814992" size="8" />
			<output>
				<port id="0" precision="I64" />
			</output>
		</layer>
		<layer id="344" name="Gather_25463" type="Gather" version="opset8">
			<data batch_dims="0" />
			<input>
				<port id="0" precision="I64">
					<dim>4</dim>
				</port>
				<port id="1" precision="I64">
					<dim>1</dim>
				</port>
				<port id="2" precision="I64" />
			</input>
			<output>
				<port id="3" precision="I64" names="/model/transformer/h.3/attn/attention/Slice_1_output_0,/model/transformer/h.3/attn/attention/Slice_output_0,/model/transformer/h.3/attn/attention/Unsqueeze_7_output_0,/model/transformer/h.3/attn/attention/Unsqueeze_8_output_0">
					<dim>1</dim>
				</port>
			</output>
		</layer>
		<layer id="345" name="/model/transformer/h.3/attn/attention/Sub" type="Subtract" version="opset1">
			<data auto_broadcast="numpy" />
			<input>
				<port id="0" precision="I64">
					<dim>1</dim>
				</port>
				<port id="1" precision="I64">
					<dim>1</dim>
				</port>
			</input>
			<output>
				<port id="2" precision="I64" names="/model/transformer/h.3/attn/attention/Sub_output_0,/model/transformer/h.3/attn/attention/Unsqueeze_6_output_0">
					<dim>1</dim>
				</port>
			</output>
		</layer>
		<layer id="346" name="/model/transformer/h.3/attn/attention/Constant_21" type="Const" version="opset1">
			<data element_type="i64" shape="1" offset="162814992" size="8" />
			<output>
				<port id="0" precision="I64" names="/model/transformer/h.3/attn/attention/Constant_21_output_0">
					<dim>1</dim>
				</port>
			</output>
		</layer>
		<layer id="347" name="Concat_21980" type="Concat" version="opset1">
			<data axis="0" />
			<input>
				<port id="0" precision="I64">
					<dim>1</dim>
				</port>
				<port id="1" precision="I64">
					<dim>1</dim>
				</port>
			</input>
			<output>
				<port id="2" precision="I64">
					<dim>2</dim>
				</port>
			</output>
		</layer>
		<layer id="348" name="Constant_22654" type="Const" version="opset1">
			<data element_type="i32" shape="1" offset="171471984" size="4" />
			<output>
				<port id="0" precision="I32">
					<dim>1</dim>
				</port>
			</output>
		</layer>
		<layer id="349" name="Concat_21981" type="Broadcast" version="opset3">
			<data mode="numpy" />
			<input>
				<port id="0" precision="I64">
					<dim>1</dim>
				</port>
				<port id="1" precision="I32">
					<dim>1</dim>
				</port>
			</input>
			<output>
				<port id="2" precision="I64">
					<dim>2</dim>
				</port>
			</output>
		</layer>
		<layer id="350" name="Constant_21985" type="Const" version="opset1">
			<data element_type="i64" shape="2" offset="171471988" size="16" />
			<output>
				<port id="0" precision="I64">
					<dim>2</dim>
				</port>
			</output>
		</layer>
		<layer id="351" name="Constant_21984" type="Const" version="opset1">
			<data element_type="i64" shape="2" offset="171472004" size="16" />
			<output>
				<port id="0" precision="I64">
					<dim>2</dim>
				</port>
			</output>
		</layer>
		<layer id="352" name="/model/transformer/h.3/attn/attention/Slice_3" type="Slice" version="opset8">
			<input>
				<port id="0" precision="BOOL">
					<dim>1</dim>
					<dim>1</dim>
					<dim>2048</dim>
					<dim>2048</dim>
				</port>
				<port id="1" precision="I64">
					<dim>2</dim>
				</port>
				<port id="2" precision="I64">
					<dim>2</dim>
				</port>
				<port id="3" precision="I64">
					<dim>2</dim>
				</port>
				<port id="4" precision="I64">
					<dim>2</dim>
				</port>
			</input>
			<output>
				<port id="5" precision="BOOL" names="/model/transformer/h.3/attn/attention/Slice_3_output_0">
					<dim>1</dim>
					<dim>1</dim>
					<dim>-1</dim>
					<dim>-1</dim>
				</port>
			</output>
		</layer>
		<layer id="353" name="Transpose_23123" type="Const" version="opset1">
			<data element_type="f32" shape="768, 768" offset="256489752" size="2359296" />
			<output>
				<port id="0" precision="FP32">
					<dim>768</dim>
					<dim>768</dim>
				</port>
			</output>
		</layer>
		<layer id="354" name="/model/transformer/h.3/attn/attention/q_proj/MatMul" type="MatMul" version="opset1">
			<data transpose_a="false" transpose_b="true" />
			<input>
				<port id="0" precision="FP32">
					<dim>1</dim>
					<dim>-1</dim>
					<dim>768</dim>
				</port>
				<port id="1" precision="FP32">
					<dim>768</dim>
					<dim>768</dim>
				</port>
			</input>
			<output>
				<port id="2" precision="FP32" names="/model/transformer/h.3/attn/attention/q_proj/MatMul_output_0">
					<dim>1</dim>
					<dim>-1</dim>
					<dim>768</dim>
				</port>
			</output>
		</layer>
		<layer id="355" name="/model/transformer/h.3/attn/attention/Concat" type="Const" version="opset1">
			<data element_type="i64" shape="4" offset="171471912" size="32" />
			<output>
				<port id="0" precision="I64">
					<dim>4</dim>
				</port>
			</output>
		</layer>
		<layer id="356" name="/model/transformer/h.3/attn/attention/Reshape" type="Reshape" version="opset1">
			<data special_zero="true" />
			<input>
				<port id="0" precision="FP32">
					<dim>1</dim>
					<dim>-1</dim>
					<dim>768</dim>
				</port>
				<port id="1" precision="I64">
					<dim>4</dim>
				</port>
			</input>
			<output>
				<port id="2" precision="FP32" names="/model/transformer/h.3/attn/attention/Reshape_output_0">
					<dim>1</dim>
					<dim>-1</dim>
					<dim>12</dim>
					<dim>64</dim>
				</port>
			</output>
		</layer>
		<layer id="357" name="Constant_1301" type="Const" version="opset1">
			<data element_type="i64" shape="4" offset="171471944" size="32" />
			<output>
				<port id="0" precision="I64">
					<dim>4</dim>
				</port>
			</output>
		</layer>
		<layer id="358" name="/model/transformer/h.3/attn/attention/Transpose" type="Transpose" version="opset1">
			<input>
				<port id="0" precision="FP32">
					<dim>1</dim>
					<dim>-1</dim>
					<dim>12</dim>
					<dim>64</dim>
				</port>
				<port id="1" precision="I64">
					<dim>4</dim>
				</port>
			</input>
			<output>
				<port id="2" precision="FP32" names="/model/transformer/h.3/attn/attention/Cast_output_0,/model/transformer/h.3/attn/attention/Transpose_output_0">
					<dim>1</dim>
					<dim>12</dim>
					<dim>-1</dim>
					<dim>64</dim>
				</port>
			</output>
		</layer>
		<layer id="359" name="/model/transformer/h.3/attn/attention/MatMul" type="MatMul" version="opset1">
			<data transpose_a="false" transpose_b="true" />
			<input>
				<port id="0" precision="FP32">
					<dim>1</dim>
					<dim>12</dim>
					<dim>-1</dim>
					<dim>64</dim>
				</port>
				<port id="1" precision="FP32">
					<dim>1</dim>
					<dim>12</dim>
					<dim>-1</dim>
					<dim>64</dim>
				</port>
			</input>
			<output>
				<port id="2" precision="FP32" names="/model/transformer/h.3/attn/attention/MatMul_output_0">
					<dim>1</dim>
					<dim>12</dim>
					<dim>-1</dim>
					<dim>-1</dim>
				</port>
			</output>
		</layer>
		<layer id="360" name="/model/transformer/h.3/attn/attention/Constant_23" type="Const" version="opset1">
			<data element_type="f32" shape="" offset="173831316" size="4" />
			<output>
				<port id="0" precision="FP32" names="/model/transformer/h.3/attn/attention/Constant_23_output_0" />
			</output>
		</layer>
		<layer id="361" name="/model/transformer/h.3/attn/attention/Where" type="Select" version="opset1">
			<data auto_broadcast="numpy" />
			<input>
				<port id="0" precision="BOOL">
					<dim>1</dim>
					<dim>1</dim>
					<dim>-1</dim>
					<dim>-1</dim>
				</port>
				<port id="1" precision="FP32">
					<dim>1</dim>
					<dim>12</dim>
					<dim>-1</dim>
					<dim>-1</dim>
				</port>
				<port id="2" precision="FP32" />
			</input>
			<output>
				<port id="3" precision="FP32" names="/model/transformer/h.3/attn/attention/Where_output_0">
					<dim>1</dim>
					<dim>12</dim>
					<dim>-1</dim>
					<dim>-1</dim>
				</port>
			</output>
		</layer>
		<layer id="362" name="/model/transformer/h.3/attn/attention/Add" type="Add" version="opset1">
			<data auto_broadcast="numpy" />
			<input>
				<port id="0" precision="FP32">
					<dim>1</dim>
					<dim>12</dim>
					<dim>-1</dim>
					<dim>-1</dim>
				</port>
				<port id="1" precision="FP32">
					<dim>1</dim>
					<dim>1</dim>
					<dim>-1</dim>
					<dim>-1</dim>
				</port>
			</input>
			<output>
				<port id="2" precision="FP32" names="/model/transformer/h.3/attn/attention/Add_output_0">
					<dim>1</dim>
					<dim>12</dim>
					<dim>-1</dim>
					<dim>-1</dim>
				</port>
			</output>
		</layer>
		<layer id="363" name="/model/transformer/h.3/attn/attention/Softmax" type="SoftMax" version="opset8">
			<data axis="3" />
			<input>
				<port id="0" precision="FP32">
					<dim>1</dim>
					<dim>12</dim>
					<dim>-1</dim>
					<dim>-1</dim>
				</port>
			</input>
			<output>
				<port id="1" precision="FP32" names="/model/transformer/h.3/attn/attention/Cast_2_output_0,/model/transformer/h.3/attn/attention/Softmax_output_0">
					<dim>1</dim>
					<dim>12</dim>
					<dim>-1</dim>
					<dim>-1</dim>
				</port>
			</output>
		</layer>
		<layer id="364" name="Transpose_23128" type="Const" version="opset1">
			<data element_type="f32" shape="768, 768" offset="258849048" size="2359296" />
			<output>
				<port id="0" precision="FP32">
					<dim>768</dim>
					<dim>768</dim>
				</port>
			</output>
		</layer>
		<layer id="365" name="/model/transformer/h.3/attn/attention/v_proj/MatMul" type="MatMul" version="opset1">
			<data transpose_a="false" transpose_b="true" />
			<input>
				<port id="0" precision="FP32">
					<dim>1</dim>
					<dim>-1</dim>
					<dim>768</dim>
				</port>
				<port id="1" precision="FP32">
					<dim>768</dim>
					<dim>768</dim>
				</port>
			</input>
			<output>
				<port id="2" precision="FP32" names="/model/transformer/h.3/attn/attention/v_proj/MatMul_output_0">
					<dim>1</dim>
					<dim>-1</dim>
					<dim>768</dim>
				</port>
			</output>
		</layer>
		<layer id="366" name="/model/transformer/h.3/attn/attention/Concat_2" type="Const" version="opset1">
			<data element_type="i64" shape="4" offset="171471912" size="32" />
			<output>
…
		<edge from-layer="402" from-port="2" to-layer="404" to-port="0" />
		<edge from-layer="403" from-port="0" to-layer="404" to-port="1" />
		<edge from-layer="404" from-port="2" to-layer="405" to-port="1" />
		<edge from-layer="405" from-port="2" to-layer="406" to-port="1" />
		<edge from-layer="406" from-port="2" to-layer="408" to-port="0" />
		<edge from-layer="406" from-port="2" to-layer="456" to-port="1" />
		<edge from-layer="407" from-port="0" to-layer="408" to-port="1" />
		<edge from-layer="408" from-port="2" to-layer="410" to-port="0" />
		<edge from-layer="409" from-port="0" to-layer="410" to-port="1" />
		<edge from-layer="410" from-port="2" to-layer="412" to-port="0" />
		<edge from-layer="411" from-port="0" to-layer="412" to-port="1" />
		<edge from-layer="412" from-port="2" to-layer="414" to-port="0" />
		<edge from-layer="412" from-port="2" to-layer="443" to-port="0" />
		<edge from-layer="412" from-port="2" to-layer="432" to-port="0" />
		<edge from-layer="413" from-port="0" to-layer="414" to-port="1" />
		<edge from-layer="414" from-port="2" to-layer="416" to-port="0" />
		<edge from-layer="415" from-port="0" to-layer="416" to-port="1" />
		<edge from-layer="416" from-port="2" to-layer="418" to-port="0" />
		<edge from-layer="417" from-port="0" to-layer="418" to-port="1" />
		<edge from-layer="418" from-port="2" to-layer="419" to-port="0" />
		<edge from-layer="418" from-port="2" to-layer="437" to-port="1" />
		<edge from-layer="419" from-port="1" to-layer="422" to-port="0" />
		<edge from-layer="420" from-port="0" to-layer="422" to-port="1" />
		<edge from-layer="421" from-port="0" to-layer="422" to-port="2" />
		<edge from-layer="422" from-port="3" to-layer="423" to-port="0" />
		<edge from-layer="422" from-port="3" to-layer="423" to-port="1" />
		<edge from-layer="422" from-port="3" to-layer="427" to-port="0" />
		<edge from-layer="423" from-port="2" to-layer="425" to-port="0" />
		<edge from-layer="424" from-port="0" to-layer="425" to-port="1" />
		<edge from-layer="425" from-port="2" to-layer="430" to-port="1" />
		<edge from-layer="426" from-port="0" to-layer="427" to-port="1" />
		<edge from-layer="427" from-port="2" to-layer="430" to-port="2" />
		<edge from-layer="428" from-port="0" to-layer="430" to-port="3" />
		<edge from-layer="429" from-port="0" to-layer="430" to-port="4" />
		<edge from-layer="430" from-port="5" to-layer="439" to-port="0" />
		<edge from-layer="431" from-port="0" to-layer="432" to-port="1" />
		<edge from-layer="432" from-port="2" to-layer="434" to-port="0" />
		<edge from-layer="433" from-port="0" to-layer="434" to-port="1" />
		<edge from-layer="434" from-port="2" to-layer="436" to-port="0" />
		<edge from-layer="435" from-port="0" to-layer="436" to-port="1" />
		<edge from-layer="436" from-port="2" to-layer="437" to-port="0" />
		<edge from-layer="437" from-port="2" to-layer="439" to-port="1" />
		<edge from-layer="438" from-port="0" to-layer="439" to-port="2" />
		<edge from-layer="439" from-port="3" to-layer="440" to-port="0" />
		<edge from-layer="440" from-port="2" to-layer="441" to-port="0" />
		<edge from-layer="441" from-port="1" to-layer="448" to-port="0" />
		<edge from-layer="442" from-port="0" to-layer="443" to-port="1" />
		<edge from-layer="443" from-port="2" to-layer="445" to-port="0" />
		<edge from-layer="444" from-port="0" to-layer="445" to-port="1" />
		<edge from-layer="445" from-port="2" to-layer="447" to-port="0" />
		<edge from-layer="446" from-port="0" to-layer="447" to-port="1" />
		<edge from-layer="447" from-port="2" to-layer="448" to-port="1" />
		<edge from-layer="448" from-port="2" to-layer="450" to-port="0" />
		<edge from-layer="449" from-port="0" to-layer="450" to-port="1" />
		<edge from-layer="450" from-port="2" to-layer="452" to-port="0" />
		<edge from-layer="451" from-port="0" to-layer="452" to-port="1" />
		<edge from-layer="452" from-port="2" to-layer="454" to-port="0" />
		<edge from-layer="453" from-port="0" to-layer="454" to-port="1" />
		<edge from-layer="454" from-port="2" to-layer="455" to-port="1" />
		<edge from-layer="455" from-port="2" to-layer="456" to-port="0" />
		<edge from-layer="456" from-port="2" to-layer="460" to-port="0" />
		<edge from-layer="456" from-port="2" to-layer="484" to-port="0" />
		<edge from-layer="457" from-port="0" to-layer="483" to-port="0" />
		<edge from-layer="458" from-port="0" to-layer="467" to-port="0" />
		<edge from-layer="459" from-port="0" to-layer="460" to-port="1" />
		<edge from-layer="460" from-port="2" to-layer="462" to-port="0" />
		<edge from-layer="461" from-port="0" to-layer="462" to-port="1" />
		<edge from-layer="462" from-port="2" to-layer="464" to-port="0" />
		<edge from-layer="463" from-port="0" to-layer="464" to-port="1" />
		<edge from-layer="464" from-port="2" to-layer="466" to-port="0" />
		<edge from-layer="465" from-port="0" to-layer="466" to-port="1" />
		<edge from-layer="466" from-port="2" to-layer="467" to-port="1" />
		<edge from-layer="467" from-port="2" to-layer="469" to-port="0" />
		<edge from-layer="467" from-port="2" to-layer="471" to-port="0" />
		<edge from-layer="467" from-port="2" to-layer="474" to-port="0" />
		<edge from-layer="468" from-port="0" to-layer="469" to-port="1" />
		<edge from-layer="469" from-port="2" to-layer="480" to-port="0" />
		<edge from-layer="470" from-port="0" to-layer="471" to-port="1" />
		<edge from-layer="471" from-port="2" to-layer="473" to-port="0" />
		<edge from-layer="472" from-port="0" to-layer="473" to-port="1" />
		<edge from-layer="473" from-port="2" to-layer="474" to-port="1" />
		<edge from-layer="474" from-port="2" to-layer="476" to-port="0" />
		<edge from-layer="475" from-port="0" to-layer="476" to-port="1" />
		<edge from-layer="476" from-port="2" to-layer="477" to-port="0" />
		<edge from-layer="477" from-port="1" to-layer="479" to-port="0" />
		<edge from-layer="478" from-port="0" to-layer="479" to-port="1" />
		<edge from-layer="479" from-port="2" to-layer="480" to-port="1" />
		<edge from-layer="480" from-port="2" to-layer="482" to-port="0" />
		<edge from-layer="481" from-port="0" to-layer="482" to-port="1" />
		<edge from-layer="482" from-port="2" to-layer="483" to-port="1" />
		<edge from-layer="483" from-port="2" to-layer="484" to-port="1" />
		<edge from-layer="484" from-port="2" to-layer="486" to-port="0" />
		<edge from-layer="484" from-port="2" to-layer="534" to-port="1" />
		<edge from-layer="485" from-port="0" to-layer="486" to-port="1" />
		<edge from-layer="486" from-port="2" to-layer="488" to-port="0" />
		<edge from-layer="487" from-port="0" to-layer="488" to-port="1" />
		<edge from-layer="488" from-port="2" to-layer="490" to-port="0" />
		<edge from-layer="489" from-port="0" to-layer="490" to-port="1" />
		<edge from-layer="490" from-port="2" to-layer="492" to-port="0" />
		<edge from-layer="490" from-port="2" to-layer="510" to-port="0" />
		<edge from-layer="490" from-port="2" to-layer="521" to-port="0" />
		<edge from-layer="491" from-port="0" to-layer="492" to-port="1" />
		<edge from-layer="492" from-port="2" to-layer="494" to-port="0" />
		<edge from-layer="493" from-port="0" to-layer="494" to-port="1" />
		<edge from-layer="494" from-port="2" to-layer="496" to-port="0" />
		<edge from-layer="495" from-port="0" to-layer="496" to-port="1" />
		<edge from-layer="496" from-port="2" to-layer="497" to-port="0" />
		<edge from-layer="496" from-port="2" to-layer="515" to-port="1" />
		<edge from-layer="497" from-port="1" to-layer="500" to-port="0" />
		<edge from-layer="498" from-port="0" to-layer="500" to-port="1" />
		<edge from-layer="499" from-port="0" to-layer="500" to-port="2" />
		<edge from-layer="500" from-port="3" to-layer="505" to-port="0" />
		<edge from-layer="500" from-port="3" to-layer="501" to-port="0" />
		<edge from-layer="500" from-port="3" to-layer="501" to-port="1" />
		<edge from-layer="501" from-port="2" to-layer="503" to-port="0" />
		<edge from-layer="502" from-port="0" to-layer="503" to-port="1" />
		<edge from-layer="503" from-port="2" to-layer="508" to-port="1" />
		<edge from-layer="504" from-port="0" to-layer="505" to-port="1" />
		<edge from-layer="505" from-port="2" to-layer="508" to-port="2" />
		<edge from-layer="506" from-port="0" to-layer="508" to-port="3" />
		<edge from-layer="507" from-port="0" to-layer="508" to-port="4" />
		<edge from-layer="508" from-port="5" to-layer="517" to-port="0" />
		<edge from-layer="509" from-port="0" to-layer="510" to-port="1" />
		<edge from-layer="510" from-port="2" to-layer="512" to-port="0" />
		<edge from-layer="511" from-port="0" to-layer="512" to-port="1" />
		<edge from-layer="512" from-port="2" to-layer="514" to-port="0" />
		<edge from-layer="513" from-port="0" to-layer="514" to-port="1" />
		<edge from-layer="514" from-port="2" to-layer="515" to-port="0" />
		<edge from-layer="515" from-port="2" to-layer="517" to-port="1" />
		<edge from-layer="516" from-port="0" to-layer="517" to-port="2" />
		<edge from-layer="517" from-port="3" to-layer="518" to-port="0" />
		<edge from-layer="518" from-port="2" to-layer="519" to-port="0" />
		<edge from-layer="519" from-port="1" to-layer="526" to-port="0" />
		<edge from-layer="520" from-port="0" to-layer="521" to-port="1" />
		<edge from-layer="521" from-port="2" to-layer="523" to-port="0" />
		<edge from-layer="522" from-port="0" to-layer="523" to-port="1" />
		<edge from-layer="523" from-port="2" to-layer="525" to-port="0" />
		<edge from-layer="524" from-port="0" to-layer="525" to-port="1" />
		<edge from-layer="525" from-port="2" to-layer="526" to-port="1" />
		<edge from-layer="526" from-port="2" to-layer="528" to-port="0" />
		<edge from-layer="527" from-port="0" to-layer="528" to-port="1" />
		<edge from-layer="528" from-port="2" to-layer="530" to-port="0" />
		<edge from-layer="529" from-port="0" to-layer="530" to-port="1" />
		<edge from-layer="530" from-port="2" to-layer="532" to-port="0" />
		<edge from-layer="531" from-port="0" to-layer="532" to-port="1" />
		<edge from-layer="532" from-port="2" to-layer="533" to-port="1" />
		<edge from-layer="533" from-port="2" to-layer="534" to-port="0" />
		<edge from-layer="534" from-port="2" to-layer="538" to-port="0" />
		<edge from-layer="534" from-port="2" to-layer="562" to-port="0" />
		<edge from-layer="535" from-port="0" to-layer="561" to-port="0" />
		<edge from-layer="536" from-port="0" to-layer="545" to-port="0" />
		<edge from-layer="537" from-port="0" to-layer="538" to-port="1" />
		<edge from-layer="538" from-port="2" to-layer="540" to-port="0" />
		<edge from-layer="539" from-port="0" to-layer="540" to-port="1" />
		<edge from-layer="540" from-port="2" to-layer="542" to-port="0" />
		<edge from-layer="541" from-port="0" to-layer="542" to-port="1" />
		<edge from-layer="542" from-port="2" to-layer="544" to-port="0" />
		<edge from-layer="543" from-port="0" to-layer="544" to-port="1" />
		<edge from-layer="544" from-port="2" to-layer="545" to-port="1" />
		<edge from-layer="545" from-port="2" to-layer="552" to-port="0" />
		<edge from-layer="545" from-port="2" to-layer="547" to-port="0" />
		<edge from-layer="545" from-port="2" to-layer="549" to-port="0" />
		<edge from-layer="546" from-port="0" to-layer="547" to-port="1" />
		<edge from-layer="547" from-port="2" to-layer="558" to-port="0" />
		<edge from-layer="548" from-port="0" to-layer="549" to-port="1" />
		<edge from-layer="549" from-port="2" to-layer="551" to-port="0" />
		<edge from-layer="550" from-port="0" to-layer="551" to-port="1" />
		<edge from-layer="551" from-port="2" to-layer="552" to-port="1" />
		<edge from-layer="552" from-port="2" to-layer="554" to-port="0" />
		<edge from-layer="553" from-port="0" to-layer="554" to-port="1" />
		<edge from-layer="554" from-port="2" to-layer="555" to-port="0" />
		<edge from-layer="555" from-port="1" to-layer="557" to-port="0" />
		<edge from-layer="556" from-port="0" to-layer="557" to-port="1" />
		<edge from-layer="557" from-port="2" to-layer="558" to-port="1" />
		<edge from-layer="558" from-port="2" to-layer="560" to-port="0" />
		<edge from-layer="559" from-port="0" to-layer="560" to-port="1" />
		<edge from-layer="560" from-port="2" to-layer="561" to-port="1" />
		<edge from-layer="561" from-port="2" to-layer="562" to-port="1" />
		<edge from-layer="562" from-port="2" to-layer="564" to-port="0" />
		<edge from-layer="562" from-port="2" to-layer="612" to-port="1" />
		<edge from-layer="563" from-port="0" to-layer="564" to-port="1" />
		<edge from-layer="564" from-port="2" to-layer="566" to-port="0" />
		<edge from-layer="565" from-port="0" to-layer="566" to-port="1" />
		<edge from-layer="566" from-port="2" to-layer="568" to-port="0" />
		<edge from-layer="567" from-port="0" to-layer="568" to-port="1" />
		<edge from-layer="568" from-port="2" to-layer="570" to-port="0" />
		<edge from-layer="568" from-port="2" to-layer="599" to-port="0" />
		<edge from-layer="568" from-port="2" to-layer="588" to-port="0" />
		<edge from-layer="569" from-port="0" to-layer="570" to-port="1" />
		<edge from-layer="570" from-port="2" to-layer="572" to-port="0" />
		<edge from-layer="571" from-port="0" to-layer="572" to-port="1" />
		<edge from-layer="572" from-port="2" to-layer="574" to-port="0" />
		<edge from-layer="573" from-port="0" to-layer="574" to-port="1" />
		<edge from-layer="574" from-port="2" to-layer="593" to-port="1" />
		<edge from-layer="574" from-port="2" to-layer="575" to-port="0" />
		<edge from-layer="575" from-port="1" to-layer="578" to-port="0" />
		<edge from-layer="576" from-port="0" to-layer="578" to-port="1" />
		<edge from-layer="577" from-port="0" to-layer="578" to-port="2" />
		<edge from-layer="578" from-port="3" to-layer="579" to-port="0" />
		<edge from-layer="578" from-port="3" to-layer="579" to-port="1" />
		<edge from-layer="578" from-port="3" to-layer="583" to-port="0" />
		<edge from-layer="579" from-port="2" to-layer="581" to-port="0" />
		<edge from-layer="580" from-port="0" to-layer="581" to-port="1" />
		<edge from-layer="581" from-port="2" to-layer="586" to-port="1" />
		<edge from-layer="582" from-port="0" to-layer="583" to-port="1" />
		<edge from-layer="583" from-port="2" to-layer="586" to-port="2" />
		<edge from-layer="584" from-port="0" to-layer="586" to-port="3" />
		<edge from-layer="585" from-port="0" to-layer="586" to-port="4" />
		<edge from-layer="586" from-port="5" to-layer="595" to-port="0" />
		<edge from-layer="587" from-port="0" to-layer="588" to-port="1" />
		<edge from-layer="588" from-port="2" to-layer="590" to-port="0" />
		<edge from-layer="589" from-port="0" to-layer="590" to-port="1" />
		<edge from-layer="590" from-port="2" to-layer="592" to-port="0" />
		<edge from-layer="591" from-port="0" to-layer="592" to-port="1" />
		<edge from-layer="592" from-port="2" to-layer="593" to-port="0" />
		<edge from-layer="593" from-port="2" to-layer="595" to-port="1" />
		<edge from-layer="594" from-port="0" to-layer="595" to-port="2" />
		<edge from-layer="595" from-port="3" to-layer="596" to-port="0" />
		<edge from-layer="596" from-port="2" to-layer="597" to-port="0" />
		<edge from-layer="597" from-port="1" to-layer="604" to-port="0" />
		<edge from-layer="598" from-port="0" to-layer="599" to-port="1" />
		<edge from-layer="599" from-port="2" to-layer="601" to-port="0" />
		<edge from-layer="600" from-port="0" to-layer="601" to-port="1" />
		<edge from-layer="601" from-port="2" to-layer="603" to-port="0" />
		<edge from-layer="602" from-port="0" to-layer="603" to-port="1" />
		<edge from-layer="603" from-port="2" to-layer="604" to-port="1" />
		<edge from-layer="604" from-port="2" to-layer="606" to-port="0" />
		<edge from-layer="605" from-port="0" to-layer="606" to-port="1" />
		<edge from-layer="606" from-port="2" to-layer="608" to-port="0" />
		<edge from-layer="607" from-port="0" to-layer="608" to-port="1" />
		<edge from-layer="608" from-port="2" to-layer="610" to-port="0" />
		<edge from-layer="609" from-port="0" to-layer="610" to-port="1" />
		<edge from-layer="610" from-port="2" to-layer="611" to-port="1" />
		<edge from-layer="611" from-port="2" to-layer="612" to-port="0" />
		<edge from-layer="612" from-port="2" to-layer="616" to-port="0" />
		<edge from-layer="612" from-port="2" to-layer="640" to-port="0" />
		<edge from-layer="613" from-port="0" to-layer="639" to-port="0" />
		<edge from-layer="614" from-port="0" to-layer="623" to-port="0" />
		<edge from-layer="615" from-port="0" to-layer="616" to-port="1" />
		<edge from-layer="616" from-port="2" to-layer="618" to-port="0" />
		<edge from-layer="617" from-port="0" to-layer="618" to-port="1" />
		<edge from-layer="618" from-port="2" to-layer="620" to-port="0" />
		<edge from-layer="619" from-port="0" to-layer="620" to-port="1" />
		<edge from-layer="620" from-port="2" to-layer="622" to-port="0" />
		<edge from-layer="621" from-port="0" to-layer="622" to-port="1" />
		<edge from-layer="622" from-port="2" to-layer="623" to-port="1" />
		<edge from-layer="623" from-port="2" to-layer="625" to-port="0" />
		<edge from-layer="623" from-port="2" to-layer="627" to-port="0" />
		<edge from-layer="623" from-port="2" to-layer="630" to-port="0" />
		<edge from-layer="624" from-port="0" to-layer="625" to-port="1" />
		<edge from-layer="625" from-port="2" to-layer="636" to-port="0" />
		<edge from-layer="626" from-port="0" to-layer="627" to-port="1" />
		<edge from-layer="627" from-port="2" to-layer="629" to-port="0" />
		<edge from-layer="628" from-port="0" to-layer="629" to-port="1" />
		<edge from-layer="629" from-port="2" to-layer="630" to-port="1" />
		<edge from-layer="630" from-port="2" to-layer="632" to-port="0" />
		<edge from-layer="631" from-port="0" to-layer="632" to-port="1" />
		<edge from-layer="632" from-port="2" to-layer="633" to-port="0" />
		<edge from-layer="633" from-port="1" to-layer="635" to-port="0" />
		<edge from-layer="634" from-port="0" to-layer="635" to-port="1" />
		<edge from-layer="635" from-port="2" to-layer="636" to-port="1" />
		<edge from-layer="636" from-port="2" to-layer="638" to-port="0" />
		<edge from-layer="637" from-port="0" to-layer="638" to-port="1" />
		<edge from-layer="638" from-port="2" to-layer="639" to-port="1" />
		<edge from-layer="639" from-port="2" to-layer="640" to-port="1" />
		<edge from-layer="640" from-port="2" to-layer="642" to-port="0" />
		<edge from-layer="640" from-port="2" to-layer="690" to-port="1" />
		<edge from-layer="641" from-port="0" to-layer="642" to-port="1" />
		<edge from-layer="642" from-port="2" to-layer="644" to-port="0" />
		<edge from-layer="643" from-port="0" to-layer="644" to-port="1" />
		<edge from-layer="644" from-port="2" to-layer="646" to-port="0" />
		<edge from-layer="645" from-port="0" to-layer="646" to-port="1" />
		<edge from-layer="646" from-port="2" to-layer="648" to-port="0" />
		<edge from-layer="646" from-port="2" to-layer="677" to-port="0" />
		<edge from-layer="646" from-port="2" to-layer="666" to-port="0" />
		<edge from-layer="647" from-port="0" to-layer="648" to-port="1" />
		<edge from-layer="648" from-port="2" to-layer="650" to-port="0" />
		<edge from-layer="649" from-port="0" to-layer="650" to-port="1" />
		<edge from-layer="650" from-port="2" to-layer="652" to-port="0" />
		<edge from-layer="651" from-port="0" to-layer="652" to-port="1" />
		<edge from-layer="652" from-port="2" to-layer="653" to-port="0" />
		<edge from-layer="652" from-port="2" to-layer="671" to-port="1" />
		<edge from-layer="653" from-port="1" to-layer="656" to-port="0" />
		<edge from-layer="654" from-port="0" to-layer="656" to-port="1" />
		<edge from-layer="655" from-port="0" to-layer="656" to-port="2" />
		<edge from-layer="656" from-port="3" to-layer="657" to-port="0" />
		<edge from-layer="656" from-port="3" to-layer="657" to-port="1" />
		<edge from-layer="656" from-port="3" to-layer="661" to-port="0" />
		<edge from-layer="657" from-port="2" to-layer="659" to-port="0" />
		<edge from-layer="658" from-port="0" to-layer="659" to-port="1" />
		<edge from-layer="659" from-port="2" to-layer="664" to-port="1" />
		<edge from-layer="660" from-port="0" to-layer="661" to-port="1" />
		<edge from-layer="661" from-port="2" to-layer="664" to-port="2" />
		<edge from-layer="662" from-port="0" to-layer="664" to-port="3" />
		<edge from-layer="663" from-port="0" to-layer="664" to-port="4" />
		<edge from-layer="664" from-port="5" to-layer="673" to-port="0" />
		<edge from-layer="665" from-port="0" to-layer="666" to-port="1" />
		<edge from-layer="666" from-port="2" to-layer="668" to-port="0" />
		<edge from-layer="667" from-port="0" to-layer="668" to-port="1" />
		<edge from-layer="668" from-port="2" to-layer="670" to-port="0" />
		<edge from-layer="669" from-port="0" to-layer="670" to-port="1" />
		<edge from-layer="670" from-port="2" to-layer="671" to-port="0" />
		<edge from-layer="671" from-port="2" to-layer="673" to-port="1" />
		<edge from-layer="672" from-port="0" to-layer="673" to-port="2" />
		<edge from-layer="673" from-port="3" to-layer="674" to-port="0" />
		<edge from-layer="674" from-port="2" to-layer="675" to-port="0" />
		<edge from-layer="675" from-port="1" to-layer="682" to-port="0" />
		<edge from-layer="676" from-port="0" to-layer="677" to-port="1" />
		<edge from-layer="677" from-port="2" to-layer="679" to-port="0" />
		<edge from-layer="678" from-port="0" to-layer="679" to-port="1" />
		<edge from-layer="679" from-port="2" to-layer="681" to-port="0" />
		<edge from-layer="680" from-port="0" to-layer="681" to-port="1" />
		<edge from-layer="681" from-port="2" to-layer="682" to-port="1" />
		<edge from-layer="682" from-port="2" to-layer="684" to-port="0" />
		<edge from-layer="683" from-port="0" to-layer="684" to-port="1" />
		<edge from-layer="684" from-port="2" to-layer="686" to-port="0" />
		<edge from-layer="685" from-port="0" to-layer="686" to-port="1" />
		<edge from-layer="686" from-port="2" to-layer="688" to-port="0" />
		<edge from-layer="687" from-port="0" to-layer="688" to-port="1" />
		<edge from-layer="688" from-port="2" to-layer="689" to-port="1" />
		<edge from-layer="689" from-port="2" to-layer="690" to-port="0" />
		<edge from-layer="690" from-port="2" to-layer="694" to-port="0" />
		<edge from-layer="690" from-port="2" to-layer="718" to-port="0" />
		<edge from-layer="691" from-port="0" to-layer="717" to-port="0" />
		<edge from-layer="692" from-port="0" to-layer="701" to-port="0" />
		<edge from-layer="693" from-port="0" to-layer="694" to-port="1" />
		<edge from-layer="694" from-port="2" to-layer="696" to-port="0" />
		<edge from-layer="695" from-port="0" to-layer="696" to-port="1" />
		<edge from-layer="696" from-port="2" to-layer="698" to-port="0" />
		<edge from-layer="697" from-port="0" to-layer="698" to-port="1" />
		<edge from-layer="698" from-port="2" to-layer="700" to-port="0" />
		<edge from-layer="699" from-port="0" to-layer="700" to-port="1" />
		<edge from-layer="700" from-port="2" to-layer="701" to-port="1" />
		<edge from-layer="701" from-port="2" to-layer="708" to-port="0" />
		<edge from-layer="701" from-port="2" to-layer="705" to-port="0" />
		<edge from-layer="701" from-port="2" to-layer="703" to-port="0" />
		<edge from-layer="702" from-port="0" to-layer="703" to-port="1" />
		<edge from-layer="703" from-port="2" to-layer="714" to-port="0" />
		<edge from-layer="704" from-port="0" to-layer="705" to-port="1" />
		<edge from-layer="705" from-port="2" to-layer="707" to-port="0" />
		<edge from-layer="706" from-port="0" to-layer="707" to-port="1" />
		<edge from-layer="707" from-port="2" to-layer="708" to-port="1" />
		<edge from-layer="708" from-port="2" to-layer="710" to-port="0" />
		<edge from-layer="709" from-port="0" to-layer="710" to-port="1" />
		<edge from-layer="710" from-port="2" to-layer="711" to-port="0" />
		<edge from-layer="711" from-port="1" to-layer="713" to-port="0" />
		<edge from-layer="712" from-port="0" to-layer="713" to-port="1" />
		<edge from-layer="713" from-port="2" to-layer="714" to-port="1" />
		<edge from-layer="714" from-port="2" to-layer="716" to-port="0" />
		<edge from-layer="715" from-port="0" to-layer="716" to-port="1" />
		<edge from-layer="716" from-port="2" to-layer="717" to-port="1" />
		<edge from-layer="717" from-port="2" to-layer="718" to-port="1" />
		<edge from-layer="718" from-port="2" to-layer="720" to-port="0" />
		<edge from-layer="718" from-port="2" to-layer="768" to-port="1" />
		<edge from-layer="719" from-port="0" to-layer="720" to-port="1" />
		<edge from-layer="720" from-port="2" to-layer="722" to-port="0" />
		<edge from-layer="721" from-port="0" to-layer="722" to-port="1" />
		<edge from-layer="722" from-port="2" to-layer="724" to-port="0" />
		<edge from-layer="723" from-port="0" to-layer="724" to-port="1" />
		<edge from-layer="724" from-port="2" to-layer="726" to-port="0" />
		<edge from-layer="724" from-port="2" to-layer="755" to-port="0" />
		<edge from-layer="724" from-port="2" to-layer="744" to-port="0" />
		<edge from-layer="725" from-port="0" to-layer="726" to-port="1" />
		<edge from-layer="726" from-port="2" to-layer="728" to-port="0" />
		<edge from-layer="727" from-port="0" to-layer="728" to-port="1" />
		<edge from-layer="728" from-port="2" to-layer="730" to-port="0" />
		<edge from-layer="729" from-port="0" to-layer="730" to-port="1" />
		<edge from-layer="730" from-port="2" to-layer="749" to-port="1" />
		<edge from-layer="730" from-port="2" to-layer="731" to-port="0" />
		<edge from-layer="731" from-port="1" to-layer="734" to-port="0" />
		<edge from-layer="732" from-port="0" to-layer="734" to-port="1" />
		<edge from-layer="733" from-port="0" to-layer="734" to-port="2" />
		<edge from-layer="734" from-port="3" to-layer="739" to-port="0" />
		<edge from-layer="734" from-port="3" to-layer="735" to-port="0" />
		<edge from-layer="734" from-port="3" to-layer="735" to-port="1" />
		<edge from-layer="735" from-port="2" to-layer="737" to-port="0" />
		<edge from-layer="736" from-port="0" to-layer="737" to-port="1" />
		<edge from-layer="737" from-port="2" to-layer="742" to-port="1" />
		<edge from-layer="738" from-port="0" to-layer="739" to-port="1" />
		<edge from-layer="739" from-port="2" to-layer="742" to-port="2" />
		<edge from-layer="740" from-port="0" to-layer="742" to-port="3" />
		<edge from-layer="741" from-port="0" to-layer="742" to-port="4" />
		<edge from-layer="742" from-port="5" to-layer="751" to-port="0" />
		<edge from-layer="743" from-port="0" to-layer="744" to-port="1" />
		<edge from-layer="744" from-port="2" to-layer="746" to-port="0" />
		<edge from-layer="745" from-port="0" to-layer="746" to-port="1" />
		<edge from-layer="746" from-port="2" to-layer="748" to-port="0" />
		<edge from-layer="747" from-port="0" to-layer="748" to-port="1" />
		<edge from-layer="748" from-port="2" to-layer="749" to-port="0" />
		<edge from-layer="749" from-port="2" to-layer="751" to-port="1" />
		<edge from-layer="750" from-port="0" to-layer="751" to-port="2" />
		<edge from-layer="751" from-port="3" to-layer="752" to-port="0" />
		<edge from-layer="752" from-port="2" to-layer="753" to-port="0" />
		<edge from-layer="753" from-port="1" to-layer="760" to-port="0" />
		<edge from-layer="754" from-port="0" to-layer="755" to-port="1" />
		<edge from-layer="755" from-port="2" to-layer="757" to-port="0" />
		<edge from-layer="756" from-port="0" to-layer="757" to-port="1" />
		<edge from-layer="757" from-port="2" to-layer="759" to-port="0" />
		<edge from-layer="758" from-port="0" to-layer="759" to-port="1" />
		<edge from-layer="759" from-port="2" to-layer="760" to-port="1" />
		<edge from-layer="760" from-port="2" to-layer="762" to-port="0" />
		<edge from-layer="761" from-port="0" to-layer="762" to-port="1" />
		<edge from-layer="762" from-port="2" to-layer="764" to-port="0" />
		<edge from-layer="763" from-port="0" to-layer="764" to-port="1" />
		<edge from-layer="764" from-port="2" to-layer="766" to-port="0" />
		<edge from-layer="765" from-port="0" to-layer="766" to-port="1" />
		<edge from-layer="766" from-port="2" to-layer="767" to-port="1" />
		<edge from-layer="767" from-port="2" to-layer="768" to-port="0" />
		<edge from-layer="768" from-port="2" to-layer="796" to-port="0" />
		<edge from-layer="768" from-port="2" to-layer="772" to-port="0" />
		<edge from-layer="769" from-port="0" to-layer="795" to-port="0" />
		<edge from-layer="770" from-port="0" to-layer="779" to-port="0" />
		<edge from-layer="771" from-port="0" to-layer="772" to-port="1" />
		<edge from-layer="772" from-port="2" to-layer="774" to-port="0" />
		<edge from-layer="773" from-port="0" to-layer="774" to-port="1" />
		<edge from-layer="774" from-port="2" to-layer="776" to-port="0" />
		<edge from-layer="775" from-port="0" to-layer="776" to-port="1" />
		<edge from-layer="776" from-port="2" to-layer="778" to-port="0" />
		<edge from-layer="777" from-port="0" to-layer="778" to-port="1" />
		<edge from-layer="778" from-port="2" to-layer="779" to-port="1" />
		<edge from-layer="779" from-port="2" to-layer="781" to-port="0" />
		<edge from-layer="779" from-port="2" to-layer="783" to-port="0" />
		<edge from-layer="779" from-port="2" to-layer="786" to-port="0" />
		<edge from-layer="780" from-port="0" to-layer="781" to-port="1" />
		<edge from-layer="781" from-port="2" to-layer="792" to-port="0" />
		<edge from-layer="782" from-port="0" to-layer="783" to-port="1" />
		<edge from-layer="783" from-port="2" to-layer="785" to-port="0" />
		<edge from-layer="784" from-port="0" to-layer="785" to-port="1" />
		<edge from-layer="785" from-port="2" to-layer="786" to-port="1" />
		<edge from-layer="786" from-port="2" to-layer="788" to-port="0" />
		<edge from-layer="787" from-port="0" to-layer="788" to-port="1" />
		<edge from-layer="788" from-port="2" to-layer="789" to-port="0" />
		<edge from-layer="789" from-port="1" to-layer="791" to-port="0" />
		<edge from-layer="790" from-port="0" to-layer="791" to-port="1" />
		<edge from-layer="791" from-port="2" to-layer="792" to-port="1" />
		<edge from-layer="792" from-port="2" to-layer="794" to-port="0" />
		<edge from-layer="793" from-port="0" to-layer="794" to-port="1" />
		<edge from-layer="794" from-port="2" to-layer="795" to-port="1" />
		<edge from-layer="795" from-port="2" to-layer="796" to-port="1" />
		<edge from-layer="796" from-port="2" to-layer="846" to-port="1" />
		<edge from-layer="796" from-port="2" to-layer="798" to-port="0" />
		<edge from-layer="797" from-port="0" to-layer="798" to-port="1" />
		<edge from-layer="798" from-port="2" to-layer="800" to-port="0" />
		<edge from-layer="799" from-port="0" to-layer="800" to-port="1" />
		<edge from-layer="800" from-port="2" to-layer="802" to-port="0" />
		<edge from-layer="801" from-port="0" to-layer="802" to-port="1" />
		<edge from-layer="802" from-port="2" to-layer="833" to-port="0" />
		<edge from-layer="802" from-port="2" to-layer="822" to-port="0" />
		<edge from-layer="802" from-port="2" to-layer="804" to-port="0" />
		<edge from-layer="803" from-port="0" to-layer="804" to-port="1" />
		<edge from-layer="804" from-port="2" to-layer="806" to-port="0" />
		<edge from-layer="805" from-port="0" to-layer="806" to-port="1" />
		<edge from-layer="806" from-port="2" to-layer="808" to-port="0" />
		<edge from-layer="807" from-port="0" to-layer="808" to-port="1" />
		<edge from-layer="808" from-port="2" to-layer="809" to-port="0" />
		<edge from-layer="808" from-port="2" to-layer="827" to-port="1" />
		<edge from-layer="809" from-port="1" to-layer="812" to-port="0" />
		<edge from-layer="810" from-port="0" to-layer="812" to-port="1" />
		<edge from-layer="811" from-port="0" to-layer="812" to-port="2" />
		<edge from-layer="812" from-port="3" to-layer="813" to-port="0" />
		<edge from-layer="812" from-port="3" to-layer="813" to-port="1" />
		<edge from-layer="812" from-port="3" to-layer="817" to-port="0" />
		<edge from-layer="813" from-port="2" to-layer="815" to-port="0" />
		<edge from-layer="814" from-port="0" to-layer="815" to-port="1" />
		<edge from-layer="815" from-port="2" to-layer="820" to-port="1" />
		<edge from-layer="816" from-port="0" to-layer="817" to-port="1" />
		<edge from-layer="817" from-port="2" to-layer="820" to-port="2" />
		<edge from-layer="818" from-port="0" to-layer="820" to-port="3" />
		<edge from-layer="819" from-port="0" to-layer="820" to-port="4" />
		<edge from-layer="820" from-port="5" to-layer="829" to-port="0" />
		<edge from-layer="821" from-port="0" to-layer="822" to-port="1" />
		<edge from-layer="822" from-port="2" to-layer="824" to-port="0" />
		<edge from-layer="823" from-port="0" to-layer="824" to-port="1" />
		<edge from-layer="824" from-port="2" to-layer="826" to-port="0" />
		<edge from-layer="825" from-port="0" to-layer="826" to-port="1" />
		<edge from-layer="826" from-port="2" to-layer="827" to-port="0" />
		<edge from-layer="827" from-port="2" to-layer="829" to-port="1" />
		<edge from-layer="828" from-port="0" to-layer="829" to-port="2" />
		<edge from-layer="829" from-port="3" to-layer="830" to-port="0" />
		<edge from-layer="830" from-port="2" to-layer="831" to-port="0" />
		<edge from-layer="831" from-port="1" to-layer="838" to-port="0" />
		<edge from-layer="832" from-port="0" to-layer="833" to-port="1" />
		<edge from-layer="833" from-port="2" to-layer="835" to-port="0" />
		<edge from-layer="834" from-port="0" to-layer="835" to-port="1" />
		<edge from-layer="835" from-port="2" to-layer="837" to-port="0" />
		<edge from-layer="836" from-port="0" to-layer="837" to-port="1" />
		<edge from-layer="837" from-port="2" to-layer="838" to-port="1" />
		<edge from-layer="838" from-port="2" to-layer="840" to-port="0" />
		<edge from-layer="839" from-port="0" to-layer="840" to-port="1" />
		<edge from-layer="840" from-port="2" to-layer="842" to-port="0" />
		<edge from-layer="841" from-port="0" to-layer="842" to-port="1" />
		<edge from-layer="842" from-port="2" to-layer="844" to-port="0" />
		<edge from-layer="843" from-port="0" to-layer="844" to-port="1" />
		<edge from-layer="844" from-port="2" to-layer="845" to-port="1" />
		<edge from-layer="845" from-port="2" to-layer="846" to-port="0" />
		<edge from-layer="846" from-port="2" to-layer="850" to-port="0" />
		<edge from-layer="846" from-port="2" to-layer="874" to-port="0" />
		<edge from-layer="847" from-port="0" to-layer="873" to-port="0" />
		<edge from-layer="848" from-port="0" to-layer="857" to-port="0" />
		<edge from-layer="849" from-port="0" to-layer="850" to-port="1" />
		<edge from-layer="850" from-port="2" to-layer="852" to-port="0" />
		<edge from-layer="851" from-port="0" to-layer="852" to-port="1" />
		<edge from-layer="852" from-port="2" to-layer="854" to-port="0" />
		<edge from-layer="853" from-port="0" to-layer="854" to-port="1" />
		<edge from-layer="854" from-port="2" to-layer="856" to-port="0" />
		<edge from-layer="855" from-port="0" to-layer="856" to-port="1" />
		<edge from-layer="856" from-port="2" to-layer="857" to-port="1" />
		<edge from-layer="857" from-port="2" to-layer="861" to-port="0" />
		<edge from-layer="857" from-port="2" to-layer="864" to-port="0" />
		<edge from-layer="857" from-port="2" to-layer="859" to-port="0" />
		<edge from-layer="858" from-port="0" to-layer="859" to-port="1" />
		<edge from-layer="859" from-port="2" to-layer="870" to-port="0" />
		<edge from-layer="860" from-port="0" to-layer="861" to-port="1" />
		<edge from-layer="861" from-port="2" to-layer="863" to-port="0" />
		<edge from-layer="862" from-port="0" to-layer="863" to-port="1" />
		<edge from-layer="863" from-port="2" to-layer="864" to-port="1" />
		<edge from-layer="864" from-port="2" to-layer="866" to-port="0" />
		<edge from-layer="865" from-port="0" to-layer="866" to-port="1" />
		<edge from-layer="866" from-port="2" to-layer="867" to-port="0" />
		<edge from-layer="867" from-port="1" to-layer="869" to-port="0" />
		<edge from-layer="868" from-port="0" to-layer="869" to-port="1" />
		<edge from-layer="869" from-port="2" to-layer="870" to-port="1" />
		<edge from-layer="870" from-port="2" to-layer="872" to-port="0" />
		<edge from-layer="871" from-port="0" to-layer="872" to-port="1" />
		<edge from-layer="872" from-port="2" to-layer="873" to-port="1" />
		<edge from-layer="873" from-port="2" to-layer="874" to-port="1" />
		<edge from-layer="874" from-port="2" to-layer="876" to-port="0" />
		<edge from-layer="874" from-port="2" to-layer="924" to-port="1" />
		<edge from-layer="875" from-port="0" to-layer="876" to-port="1" />
		<edge from-layer="876" from-port="2" to-layer="878" to-port="0" />
		<edge from-layer="877" from-port="0" to-layer="878" to-port="1" />
		<edge from-layer="878" from-port="2" to-layer="880" to-port="0" />
		<edge from-layer="879" from-port="0" to-layer="880" to-port="1" />
		<edge from-layer="880" from-port="2" to-layer="882" to-port="0" />
		<edge from-layer="880" from-port="2" to-layer="900" to-port="0" />
		<edge from-layer="880" from-port="2" to-layer="911" to-port="0" />
		<edge from-layer="881" from-port="0" to-layer="882" to-port="1" />
		<edge from-layer="882" from-port="2" to-layer="884" to-port="0" />
		<edge from-layer="883" from-port="0" to-layer="884" to-port="1" />
		<edge from-layer="884" from-port="2" to-layer="886" to-port="0" />
		<edge from-layer="885" from-port="0" to-layer="886" to-port="1" />
		<edge from-layer="886" from-port="2" to-layer="887" to-port="0" />
		<edge from-layer="886" from-port="2" to-layer="905" to-port="1" />
		<edge from-layer="887" from-port="1" to-layer="890" to-port="0" />
		<edge from-layer="888" from-port="0" to-layer="890" to-port="1" />
		<edge from-layer="889" from-port="0" to-layer="890" to-port="2" />
		<edge from-layer="890" from-port="3" to-layer="895" to-port="0" />
		<edge from-layer="890" from-port="3" to-layer="891" to-port="1" />
		<edge from-layer="890" from-port="3" to-layer="891" to-port="0" />
		<edge from-layer="891" from-port="2" to-layer="893" to-port="0" />
		<edge from-layer="892" from-port="0" to-layer="893" to-port="1" />
		<edge from-layer="893" from-port="2" to-layer="898" to-port="1" />
		<edge from-layer="894" from-port="0" to-layer="895" to-port="1" />
		<edge from-layer="895" from-port="2" to-layer="898" to-port="2" />
		<edge from-layer="896" from-port="0" to-layer="898" to-port="3" />
		<edge from-layer="897" from-port="0" to-layer="898" to-port="4" />
		<edge from-layer="898" from-port="5" to-layer="907" to-port="0" />
		<edge from-layer="899" from-port="0" to-layer="900" to-port="1" />
		<edge from-layer="900" from-port="2" to-layer="902" to-port="0" />
		<edge from-layer="901" from-port="0" to-layer="902" to-port="1" />
		<edge from-layer="902" from-port="2" to-layer="904" to-port="0" />
		<edge from-layer="903" from-port="0" to-layer="904" to-port="1" />
		<edge from-layer="904" from-port="2" to-layer="905" to-port="0" />
		<edge from-layer="905" from-port="2" to-layer="907" to-port="1" />
		<edge from-layer="906" from-port="0" to-layer="907" to-port="2" />
		<edge from-layer="907" from-port="3" to-layer="908" to-port="0" />
		<edge from-layer="908" from-port="2" to-layer="909" to-port="0" />
		<edge from-layer="909" from-port="1" to-layer="916" to-port="0" />
		<edge from-layer="910" from-port="0" to-layer="911" to-port="1" />
		<edge from-layer="911" from-port="2" to-layer="913" to-port="0" />
		<edge from-layer="912" from-port="0" to-layer="913" to-port="1" />
		<edge from-layer="913" from-port="2" to-layer="915" to-port="0" />
		<edge from-layer="914" from-port="0" to-layer="915" to-port="1" />
		<edge from-layer="915" from-port="2" to-layer="916" to-port="1" />
		<edge from-layer="916" from-port="2" to-layer="918" to-port="0" />
		<edge from-layer="917" from-port="0" to-layer="918" to-port="1" />
		<edge from-layer="918" from-port="2" to-layer="920" to-port="0" />
		<edge from-layer="919" from-port="0" to-layer="920" to-port="1" />
		<edge from-layer="920" from-port="2" to-layer="922" to-port="0" />
		<edge from-layer="921" from-port="0" to-layer="922" to-port="1" />
		<edge from-layer="922" from-port="2" to-layer="923" to-port="1" />
		<edge from-layer="923" from-port="2" to-layer="924" to-port="0" />
		<edge from-layer="924" from-port="2" to-layer="928" to-port="0" />
		<edge from-layer="924" from-port="2" to-layer="952" to-port="0" />
		<edge from-layer="925" from-port="0" to-layer="951" to-port="0" />
		<edge from-layer="926" from-port="0" to-layer="935" to-port="0" />
		<edge from-layer="927" from-port="0" to-layer="928" to-port="1" />
		<edge from-layer="928" from-port="2" to-layer="930" to-port="0" />
		<edge from-layer="929" from-port="0" to-layer="930" to-port="1" />
		<edge from-layer="930" from-port="2" to-layer="932" to-port="0" />
		<edge from-layer="931" from-port="0" to-layer="932" to-port="1" />
		<edge from-layer="932" from-port="2" to-layer="934" to-port="0" />
		<edge from-layer="933" from-port="0" to-layer="934" to-port="1" />
		<edge from-layer="934" from-port="2" to-layer="935" to-port="1" />
		<edge from-layer="935" from-port="2" to-layer="937" to-port="0" />
		<edge from-layer="935" from-port="2" to-layer="939" to-port="0" />
		<edge from-layer="935" from-port="2" to-layer="942" to-port="0" />
		<edge from-layer="936" from-port="0" to-layer="937" to-port="1" />
		<edge from-layer="937" from-port="2" to-layer="948" to-port="0" />
		<edge from-layer="938" from-port="0" to-layer="939" to-port="1" />
		<edge from-layer="939" from-port="2" to-layer="941" to-port="0" />
		<edge from-layer="940" from-port="0" to-layer="941" to-port="1" />
		<edge from-layer="941" from-port="2" to-layer="942" to-port="1" />
		<edge from-layer="942" from-port="2" to-layer="944" to-port="0" />
		<edge from-layer="943" from-port="0" to-layer="944" to-port="1" />
		<edge from-layer="944" from-port="2" to-layer="945" to-port="0" />
		<edge from-layer="945" from-port="1" to-layer="947" to-port="0" />
		<edge from-layer="946" from-port="0" to-layer="947" to-port="1" />
		<edge from-layer="947" from-port="2" to-layer="948" to-port="1" />
		<edge from-layer="948" from-port="2" to-layer="950" to-port="0" />
		<edge from-layer="949" from-port="0" to-layer="950" to-port="1" />
		<edge from-layer="950" from-port="2" to-layer="951" to-port="1" />
		<edge from-layer="951" from-port="2" to-layer="952" to-port="1" />
		<edge from-layer="952" from-port="2" to-layer="954" to-port="0" />
		<edge from-layer="952" from-port="2" to-layer="1002" to-port="1" />
		<edge from-layer="953" from-port="0" to-layer="954" to-port="1" />
		<edge from-layer="954" from-port="2" to-layer="956" to-port="0" />
		<edge from-layer="955" from-port="0" to-layer="956" to-port="1" />
		<edge from-layer="956" from-port="2" to-layer="958" to-port="0" />
		<edge from-layer="957" from-port="0" to-layer="958" to-port="1" />
		<edge from-layer="958" from-port="2" to-layer="960" to-port="0" />
		<edge from-layer="958" from-port="2" to-layer="978" to-port="0" />
		<edge from-layer="958" from-port="2" to-layer="989" to-port="0" />
		<edge from-layer="959" from-port="0" to-layer="960" to-port="1" />
		<edge from-layer="960" from-port="2" to-layer="962" to-port="0" />
		<edge from-layer="961" from-port="0" to-layer="962" to-port="1" />
		<edge from-layer="962" from-port="2" to-layer="964" to-port="0" />
		<edge from-layer="963" from-port="0" to-layer="964" to-port="1" />
		<edge from-layer="964" from-port="2" to-layer="965" to-port="0" />
		<edge from-layer="964" from-port="2" to-layer="983" to-port="1" />
		<edge from-layer="965" from-port="1" to-layer="968" to-port="0" />
		<edge from-layer="966" from-port="0" to-layer="968" to-port="1" />
		<edge from-layer="967" from-port="0" to-layer="968" to-port="2" />
		<edge from-layer="968" from-port="3" to-layer="969" to-port="0" />
		<edge from-layer="968" from-port="3" to-layer="969" to-port="1" />
		<edge from-layer="968" from-port="3" to-layer="973" to-port="0" />
		<edge from-layer="969" from-port="2" to-layer="971" to-port="0" />
		<edge from-layer="970" from-port="0" to-layer="971" to-port="1" />
		<edge from-layer="971" from-port="2" to-layer="976" to-port="1" />
		<edge from-layer="972" from-port="0" to-layer="973" to-port="1" />
		<edge from-layer="973" from-port="2" to-layer="976" to-port="2" />
		<edge from-layer="974" from-port="0" to-layer="976" to-port="3" />
		<edge from-layer="975" from-port="0" to-layer="976" to-port="4" />
		<edge from-layer="976" from-port="5" to-layer="985" to-port="0" />
		<edge from-layer="977" from-port="0" to-layer="978" to-port="1" />
		<edge from-layer="978" from-port="2" to-layer="980" to-port="0" />
		<edge from-layer="979" from-port="0" to-layer="980" to-port="1" />
		<edge from-layer="980" from-port="2" to-layer="982" to-port="0" />
		<edge from-layer="981" from-port="0" to-layer="982" to-port="1" />
		<edge from-layer="982" from-port="2" to-layer="983" to-port="0" />
		<edge from-layer="983" from-port="2" to-layer="985" to-port="1" />
		<edge from-layer="984" from-port="0" to-layer="985" to-port="2" />
		<edge from-layer="985" from-port="3" to-layer="986" to-port="0" />
		<edge from-layer="986" from-port="2" to-layer="987" to-port="0" />
		<edge from-layer="987" from-port="1" to-layer="994" to-port="0" />
		<edge from-layer="988" from-port="0" to-layer="989" to-port="1" />
		<edge from-layer="989" from-port="2" to-layer="991" to-port="0" />
		<edge from-layer="990" from-port="0" to-layer="991" to-port="1" />
		<edge from-layer="991" from-port="2" to-layer="993" to-port="0" />
		<edge from-layer="992" from-port="0" to-layer="993" to-port="1" />
		<edge from-layer="993" from-port="2" to-layer="994" to-port="1" />
		<edge from-layer="994" from-port="2" to-layer="996" to-port="0" />
		<edge from-layer="995" from-port="0" to-layer="996" to-port="1" />
		<edge from-layer="996" from-port="2" to-layer="998" to-port="0" />
		<edge from-layer="997" from-port="0" to-layer="998" to-port="1" />
		<edge from-layer="998" from-port="2" to-layer="1000" to-port="0" />
		<edge from-layer="999" from-port="0" to-layer="1000" to-port="1" />
		<edge from-layer="1000" from-port="2" to-layer="1001" to-port="1" />
		<edge from-layer="1001" from-port="2" to-layer="1002" to-port="0" />
		<edge from-layer="1002" from-port="2" to-layer="1006" to-port="0" />
		<edge from-layer="1002" from-port="2" to-layer="1030" to-port="0" />
		<edge from-layer="1003" from-port="0" to-layer="1029" to-port="0" />
		<edge from-layer="1004" from-port="0" to-layer="1013" to-port="0" />
		<edge from-layer="1005" from-port="0" to-layer="1006" to-port="1" />
		<edge from-layer="1006" from-port="2" to-layer="1008" to-port="0" />
		<edge from-layer="1007" from-port="0" to-layer="1008" to-port="1" />
		<edge from-layer="1008" from-port="2" to-layer="1010" to-port="0" />
		<edge from-layer="1009" from-port="0" to-layer="1010" to-port="1" />
		<edge from-layer="1010" from-port="2" to-layer="1012" to-port="0" />
		<edge from-layer="1011" from-port="0" to-layer="1012" to-port="1" />
		<edge from-layer="1012" from-port="2" to-layer="1013" to-port="1" />
		<edge from-layer="1013" from-port="2" to-layer="1015" to-port="0" />
		<edge from-layer="1013" from-port="2" to-layer="1017" to-port="0" />
		<edge from-layer="1013" from-port="2" to-layer="1020" to-port="0" />
		<edge from-layer="1014" from-port="0" to-layer="1015" to-port="1" />
		<edge from-layer="1015" from-port="2" to-layer="1026" to-port="0" />
		<edge from-layer="1016" from-port="0" to-layer="1017" to-port="1" />
		<edge from-layer="1017" from-port="2" to-layer="1019" to-port="0" />
		<edge from-layer="1018" from-port="0" to-layer="1019" to-port="1" />
		<edge from-layer="1019" from-port="2" to-layer="1020" to-port="1" />
		<edge from-layer="1020" from-port="2" to-layer="1022" to-port="0" />
		<edge from-layer="1021" from-port="0" to-layer="1022" to-port="1" />
		<edge from-layer="1022" from-port="2" to-layer="1023" to-port="0" />
		<edge from-layer="1023" from-port="1" to-layer="1025" to-port="0" />
		<edge from-layer="1024" from-port="0" to-layer="1025" to-port="1" />
		<edge from-layer="1025" from-port="2" to-layer="1026" to-port="1" />
		<edge from-layer="1026" from-port="2" to-layer="1028" to-port="0" />
		<edge from-layer="1027" from-port="0" to-layer="1028" to-port="1" />
		<edge from-layer="1028" from-port="2" to-layer="1029" to-port="1" />
		<edge from-layer="1029" from-port="2" to-layer="1030" to-port="1" />
		<edge from-layer="1030" from-port="2" to-layer="1032" to-port="0" />
		<edge from-layer="1031" from-port="0" to-layer="1032" to-port="1" />
		<edge from-layer="1032" from-port="2" to-layer="1034" to-port="0" />
		<edge from-layer="1033" from-port="0" to-layer="1034" to-port="1" />
		<edge from-layer="1034" from-port="2" to-layer="1036" to-port="0" />
		<edge from-layer="1035" from-port="0" to-layer="1036" to-port="1" />
		<edge from-layer="1036" from-port="2" to-layer="1045" to-port="0" />
		<edge from-layer="1037" from-port="0" to-layer="1044" to-port="0" />
		<edge from-layer="1038" from-port="1" to-layer="1043" to-port="0" />
		<edge from-layer="1039" from-port="0" to-layer="1043" to-port="1" />
		<edge from-layer="1040" from-port="0" to-layer="1043" to-port="2" />
		<edge from-layer="1041" from-port="0" to-layer="1043" to-port="3" />
		<edge from-layer="1042" from-port="0" to-layer="1043" to-port="4" />
		<edge from-layer="1043" from-port="5" to-layer="1044" to-port="2" />
		<edge from-layer="1044" from-port="3" to-layer="1045" to-port="1" />
		<edge from-layer="1045" from-port="2" to-layer="1047" to-port="0" />
		<edge from-layer="1046" from-port="0" to-layer="1047" to-port="1" />
		<edge from-layer="1047" from-port="2" to-layer="1048" to-port="0" />
	</edges>
	<rt_info>
		<MO_version value="2024.3.0-16041-1e3b88e4e3f-releases/2024/3" />
		<Runtime_version value="2024.3.0-16041-1e3b88e4e3f-releases/2024/3" />
		<conversion_parameters>
			<input_model value="DIR\fine_tuned_gptneo_model.onnx" />
			<is_python_api_used value="True" />
			<output value="output" />
		</conversion_parameters>
		<legacy_frontend value="False" />
	</rt_info>
</net>
